tools/ML/Data/ML_DET_RES_5_Photo.pt (torch, 9933 bytes, 18 tensors)

conv1.weight f4 [4, 1, 1, 3]
0	0x3d6c2b84	0.057658687
1	0xbb2675ad	-0.002539973
2	0xbdcc465b	-0.09974357
3	0xbed5d619	-0.41764906
4	0x3da598a8	0.080857575
5	0x3e9486f1	0.29009202
6	0x3eac3827	0.3363659
7	0xbd15e24e	-0.036592774
8	0xbed9294e	-0.42414325
9	0x3f31d408	0.6946416
10	0xbd921731	-0.0713333
11	0xbf676f5b	-0.9040429

conv1.bias f4 [4]
0	0xbdf355be	-0.118815884
1	0x3d47df47	0.04879692
2	0x3ee61cd4	0.4494387
3	0xbf11000e	-0.5664071

lin1.weight f4 [8, 8]
0	0x3f1d8b41	0.6154061
1	0x3f5d8348	0.86528444
2	0x3f1dddf7	0.61666816
3	0x3e8d5db2	0.27610546
4	0x3f2fb74b	0.6863906
5	0x3f92dd81	1.1473848
6	0x3faba017	1.340823
7	0x3fdd27b5	1.7277743
8	0x3ff39b94	1.9031854
9	0x3f692254	0.91068006
10	0x3fe266e1	1.7687646
11	0x3fc43f59	1.5331832
12	0x3fafa03a	1.3720772
13	0x40023b43	2.034867
14	0x3fa4c972	1.2873976
15	0x3f7cabe4	0.98699784
16	0x3f07298a	0.5279776
17	0x3f7c68e1	0.9859753
18	0x3f9866d9	1.1906387
19	0x3fd34fba	1.6508706
20	0x3fe035c4	1.7516408
21	0x3f5d6480	0.86481476
22	0x3eca7f9a	0.39550477
23	0x3f4cf173	0.8005592
24	0x3f573816	0.84069955
25	0x3fe654b2	1.7994597
26	0x3f559a46	0.8343853
27	0x40022d65	2.0340207
28	0x3e701605	0.234459
29	0x3f8341be	1.0254438
30	0x3f32557d	0.69661695
31	0x3fa69648	1.3014612
32	0x3f59ddc3	0.85104007
33	0x3fc62a7e	1.5481718
34	0x3f2744fd	0.6533964
35	0x3fb73f39	1.4316169
36	0x3f1f5306	0.6223606
37	0x3efdc5c0	0.49564934
38	0x3f05c720	0.52256966
39	0x3f8cf1af	1.1011256
40	0x3fa845d8	1.3146315
41	0x3f820f23	1.0160869
42	0x3f74b316	0.95585763
43	0x3f8b56c7	1.0885857
44	0x3fa1c968	1.2639589
45	0x3f932f12	1.149874
46	0x3f96383b	1.173591
47	0x3f69b7ba	0.9129597
48	0x3f7220f2	0.9458152
49	0x3c08509b	0.008319999
50	0x3fa9c386	1.3262794
51	0x3ec7c356	0.39016217
52	0x3fa6aa24	1.3020673
53	0x3f356b0f	0.70866483
54	0x3d119236	0.03553983
55	0x3fa98201	1.3242799
56	0x401333cc	2.3000364
57	0x3faaf710	1.3356647
58	0x3f39c7f7	0.7257075
59	0x3ff7840f	1.9337176
60	0x3f86acfa	1.0521538
61	0x3f6d9c7e	0.92816913
62	0x3eff2c9b	0.4983872
63	0x3f5cf8c3	0.8631708

lin1.bias f4 [8]
0	0xbe8fc1c5	-0.28077522
1	0xbe925ed8	-0.28587985
2	0x3eb03acc	0.34419858
3	0x3a2ce58f	0.0006595486
4	0xbe57e2a4	-0.2108255
5	0x3e39aa39	0.18131341
6	0x3e7757f7	0.2415465
7	0x3e81accd	0.2532715

conv2.weight f4 [16, 4, 4, 5]
0	0xbe85a0be	-0.260992
1	0xbf8d078d	-1.1017929
2	0x3f4f601e	0.8100604
3	0xbfa34e3a	-1.2758248
4	0xbf427980	-0.75966644
5	0xbf1939a8	-0.598536
6	0x3f6cc407	0.92486614
7	0xbea2bb74	-0.3178364
8	0xbf118666	-0.568457
9	0x3f610051	0.8789111
10	0x3e266682	0.16250041
11	0xbfa69f81	-1.3017427
12	0xbd00c5db	-0.03143869
13	0x3dbdb914	0.092638165
14	0xbf2908be	-0.66028965
15	0xbf80128b	-1.0005659
16	0x3f9e78c1	1.2380601
17	0x3f8b0dd3	1.0863594
18	0x3eb5194c	0.35370862
19	0xbe5458a5	-0.2073694
20	0xbf368a07	-0.71304363
21	0xbf930ae2	-1.1487696
22	0x400d941e	2.2121654
23	0xbf4e9179	-0.80690724
24	0x3e295c6f	0.16539167
25	0x3e2c2332	0.16810301
26	0xbed27167	-0.41102144
27	0x3e5a5068	0.21319735
28	0x3e929dc4	0.2863599
29	0xbedcb01f	-0.4310312
30	0xbf39237a	-0.7231976
31	0xbed01fc4	-0.40649235
32	0xbf9ba7e7	-1.2160615
33	0xbecdbf65	-0.40185085
34	0x3f9095ea	1.129575
35	0x3ed24832	0.41070706
36	0xbff234fb	-1.8922418
37	0x3f852115	1.0400721
38	0xbf8c048d	-1.0938889
39	0xbfab70ff	-1.3393859
40	0x3f8fce1d	1.1234776
41	0xbf9590c5	-1.1684805
42	0x3f3d2b9e	0.7389468
43	0xbdb049f9	-0.08607859
44	0x3e8e9b39	0.278528
45	0xbf6067f0	-0.87658596
46	0x3f13e1e9	0.57766587
47	0x3f7e4a16	0.99331796
48	0x3fffbc30	1.9979305
49	0x3fac2fe6	1.3452117
50	0xbfdc645b	-1.7218126
51	0x3f38230c	0.7192848
52	0x3f022635	0.5083955
53	0x3f4668c9	0.7750364
54	0xc00957dc	-2.1459875
55	0xbee420a8	-0.44556165
56	0x3f0f66d5	0.56016284
57	0xbf67e52b	-0.9058406
58	0xbe51f984	-0.20505339
59	0xbf62ca0e	-0.8858956
60	0xbf6bb57b	-0.9207379
61	0xbf422549	-0.7583814
62	0x3ec1dc5c	0.37863433
63	0x3a611bf7	0.0008587236
64	0x3fc95984	1.5730443
65	0x3eaa3b7e	0.33248514
66	0xbcc30d62	-0.023810092
67	0xbf78697c	-0.97035956
68	0xbe503c53	-0.20335512
69	0xbe00fdc2	-0.12596801
70	0x4005dae4	2.091485
71	0xbf818d29	-1.0121204
72	0x3f71a28a	0.9438864
73	0xbee03a12	-0.43794304
74	0xbde25c92	-0.11052813
75	0x3fe73de4	1.8065763
76	0xc006b1f4	-2.1046114
77	0xbbbdd163	-0.005792783
78	0xc00e7c87	-2.2263505
79	0xbe477d46	-0.19481382
80	0xbfa7e365	-1.311627
81	0xbfb666db	-1.4250139
82	0xbdda6d34	-0.1066536
83	0xbfe76180	-1.807663
84	0x3e37ca99	0.17948379
85	0xbeb74137	-0.35791942
86	0xbec3a365	-0.38210598
87	0x3f5c0943	0.8595163
88	0x3ddcf6dc	0.10789272
89	0x3f6541fe	0.8955382
90	0xbf8dfdee	-1.1093118
91	0x3fbc1774	1.4694657
92	0x3d70f1a2	0.05882419
93	0x3e32cd1a	0.17461053
94	0x3f803d17	1.0018643
95	0x3eb4b623	0.3529521
96	0xbf4fe377	-0.8120646
97	0x3e89f5b7	0.26945278
98	0x3e8e8ca9	0.2784169
99	0x3f99b760	1.2009087
100	0x3f83cde3	1.0297207
101	0x3d24f493	0.040272307
102	0x3df7f67c	0.1210756
103	0xbf246be2	-0.64227116
104	0x3f5a9f6a	0.85399497
105	0x403a9379	2.915251
106	0xbe8e9e7c	-0.2785529
107	0xc00fbc2c	-2.24586
108	0x3cab4150	0.020905167
109	0x3ea059df	0.31318566
110	0xbf365a1b	-0.7123124
111	0x3edcf02d	0.4315199
112	0xbdc27845	-0.09495596
113	0xbe88b2af	-0.26698825
114	0x3fbc170f	1.4694537
115	0x3eba3ef7	0.36376163
116	0x3f30d4a3	0.6907446
117	0xbf86866b	-1.0509771
118	0xbf5fa40d	-0.87359697
119	0x3fd8953b	1.6920542
120	0xbeefdd0d	-0.46848336
121	0xbf96c33c	-1.1778331
122	0xbf9abba6	-1.2088516
123	0x3f335eae	0.70066345
124	0x3fe7a68f	1.8097705
125	0xc0255de7	-2.5838563
126	0xbfca686c	-1.5813117
127	0x3fdae287	1.7100381
128	0xbfa55d5e	-1.2919118
129	0x3fb10033	1.3828186
130	0xbe17de35	-0.14830859
131	0xbeab31c9	-0.3343642
132	0x3fdbfb20	1.7186012
133	0x3f51157e	0.8167342
134	0xbff9526b	-1.9478277
135	0xbfa4362d	-1.2829033
136	0x3ecd9bba	0.40157872
137	0xbfd7fc58	-1.6873884
138	0x3f0ef2f1	0.5583945
139	0xbf478186	-0.7793201
140	0xbe5db76c	-0.21652001
141	0xbf6c40ba	-0.92286265
142	0xbf8bd18a	-1.0923321
143	0xbee7597c	-0.4518546
144	0x3eb67676	0.35637254
145	0x3fe29123	1.7700542
146	0xbf47e176	-0.780784
147	0x3d19468e	0.0374208
148	0x3f8ff8e5	1.1247832
149	0xbedea446	-0.43484706
150	0x3f8ebecd	1.1151978
151	0x3e95a890	0.29230165
152	0xc005a7cf	-2.0883672
153	0xbe91851b	-0.28421864
154	0xbd4aa95c	-0.04947792
155	0xbeab78a5	-0.33490482
156	0x3f2dd3cf	0.6790132
157	0x3fbf1a93	1.4929985
158	0x3eaa6237	0.33278057
159	0x3ed18159	0.40918997
160	0x3f00e616	0.50351083
161	0x3f680d70	0.90645504
162	0x3e8f85f6	0.28031892
163	0x3e78a554	0.24281818
164	0xbf02f0f7	-0.51148933
165	0x3f83fca5	1.0311476
166	0xbf3180b8	-0.69337034
167	0xbf8a5a18	-1.0808744
168	0x3faa9688	1.3327188
169	0x3d5c5461	0.053791407
170	0x3d9236bf	0.07139348
171	0xbf7a1079	-0.97681385
172	0xbf0b3dda	-0.54391253
173	0x3fb9bd2d	1.4510857
174	0xbe8f8df5	-0.28037992
175	0x3fab10b6	1.3364475
176	0x3fc8e0fa	1.5693657
177	0xbfc070e8	-1.5034456
178	0x3f460310	0.77348423
179	0xbf23f63c	-0.640476
180	0x3dbed393	0.09317698
181	0xba2cddb5	-0.0006594316
182	0xc0222652	-2.533589
183	0x3e9149c9	0.28376606
184	0x3e08dc89	0.13365377
185	0x3e5718a4	0.21005493
186	0xbe4942de	-0.19654414
187	0x3ec0a810	0.37628222
188	0xbf355ee1	-0.708479
189	0x3f9602b0	1.171957
190	0xbf920cdf	-1.1410178
191	0x3f054976	0.5206522
192	0x3fa6f531	1.3043576
193	0x3ffdcd14	1.982821
194	0x3e900be0	0.2813406
195	0xbf075ad8	-0.5287299
196	0x3f801790	1.0007191
197	0x3dd690da	0.10476847
198	0xbfb5a90b	-1.4192213
199	0x3ea4db16	0.321984
200	0x3fac48c7	1.345971
201	0x403adb30	2.9196281
202	0x3f8063ee	1.0030496
203	0xbe8d9993	-0.2765623
204	0x3f889379	1.0670005
205	0xbf69588d	-0.9115074
206	0xbdf74435	-0.12073556
207	0xbf4b4439	-0.79400975
208	0xbfe1dfa4	-1.7646375
209	0xbf843289	-1.0327922
210	0x3efecaef	0.497642
211	0x3dae4dc4	0.08510926
212	0x3ef9555b	0.48697934
213	0xbfab0e81	-1.3363801
214	0x3f9d897e	1.2307584
215	0x3f31a7d9	0.6939674
216	0xbd8d4f85	-0.06899933
217	0xbe230614	-0.15920287
218	0x3e0e7026	0.13909969
219	0xbf95fccb	-1.1717771
220	0xbf30eec0	-0.69114304
221	0x3ed0bed0	0.40770578
222	0xbe1165f4	-0.14199048
223	0xbc8cbdf9	-0.01718043
224	0xbee19e23	-0.4406596
225	0xbdf28c42	-0.11843158
226	0xbd9505d8	-0.07276505
227	0x3f9d1a1e	1.2273595
228	0x3fb32770	1.399641
229	0x3f8784bd	1.0587384
230	0xbfe711af	-1.8052272
231	0x3fed7417	1.8551053
232	0xbe656385	-0.22401245
233	0xbe443877	-0.19162165
234	0xbed09bb1	-0.40743783
235	0xbf5a1bad	-0.8519848
236	0xbf75f621	-0.9607869
237	0x3f1d41fe	0.6142882
238	0x3f921d06	1.1415107
239	0xbd3c85d8	-0.04602608
240	0xbff2f0f7	-1.8979787
241	0xc0263ed4	-2.5975847
242	0x3eaee437	0.3415849
243	0xbf985d7b	-1.1903528
244	0x3f7ed445	0.9954265
245	0x3fa51f2e	1.290014
246	0x3e60d8b0	0.2195766
247	0xbd9fbb38	-0.07799381
248	0x40281f97	2.626928
249	0xbfb40547	-1.406411
250	0xbe134a35	-0.14383776
251	0x3edf3cbc	0.43601024
252	0xbe008ee9	-0.12554516
253	0xbedac27f	-0.42726514
254	0x3f499cf1	0.787551
255	0x3f51c44d	0.81940156

conv2.bias f4 [16]
0	0x3d961ba0	0.07329488
1	0x3dde3e63	0.10851743
2	0x3d3a2297	0.045443144
3	0xbd083d8a	-0.033261813
4	0xbd9a05e5	-0.075206555
5	0xbda3c188	-0.079958975
6	0x3d59ca53	0.053171467
7	0xbcfae43c	-0.030626409
8	0x3d0a159a	0.033712007
9	0x3d691b3a	0.05691073
10	0xbcbd5863	-0.023113435
11	0x3d1f0a2e	0.038828067
12	0x3b8ebc15	0.004355917
13	0xbba9b602	-0.0051791677
14	0x3dcb814e	0.09936772
15	0xbd8d0ac0	-0.06886816

lin2.weight f4 [4, 4]
0	0x3deee130	0.11664045
1	0x3eebb48d	0.46036187
2	0x3f4a3db5	0.7900041
3	0x3e14af31	0.14519955
4	0x3e89d35a	0.2691906
5	0x3f34b9e8	0.7059617
6	0x3f990054	1.1953225
7	0x3ec87213	0.39149532
8	0x3ff665d9	1.9249831
9	0x3f860433	1.0470031
10	0x3f89dca8	1.0770464
11	0x3e981faf	0.29711673
12	0x3f3710d4	0.7151005
13	0x3f6df8fd	0.9295805
14	0x3f281b2d	0.65666467
15	0x3fc0c98d	1.5061508

lin2.bias f4 [4]
0	0x3e53ab9e	0.20670936
1	0x3e3427cd	0.17593308
2	0xbee5b4cc	-0.448645
3	0xbd229fee	-0.039703302

conv3.weight f4 [1, 16, 1, 1]
0	0x3eda021a	0.42579728
1	0xbe8f323f	-0.27968022
2	0x3f1be82f	0.6090116
3	0xbe5b85a6	-0.21437702
4	0xbdc60dbf	-0.096705906
5	0xbe48b202	-0.19599155
6	0xbd11fee8	-0.03564349
7	0x3f42e464	0.76129746
8	0x3fb33493	1.4000419
9	0xbec377b8	-0.38177276
10	0x3f8cf366	1.1011779
11	0x3e31c523	0.17360358
12	0xbf1c4d4b	-0.6105544
13	0xbf950109	-1.1640941
14	0x3ecf6bda	0.40511972
15	0x3cf8e04b	0.030380389

convs.0.weight f4 [4, 1, 1, 3]
0	0x3d6c2b84	0.057658687
1	0xbb2675ad	-0.002539973
2	0xbdcc465b	-0.09974357
3	0xbed5d619	-0.41764906
4	0x3da598a8	0.080857575
5	0x3e9486f1	0.29009202
6	0x3eac3827	0.3363659
7	0xbd15e24e	-0.036592774
8	0xbed9294e	-0.42414325
9	0x3f31d408	0.6946416
10	0xbd921731	-0.0713333
11	0xbf676f5b	-0.9040429

convs.0.bias f4 [4]
0	0xbdf355be	-0.118815884
1	0x3d47df47	0.04879692
2	0x3ee61cd4	0.4494387
3	0xbf11000e	-0.5664071

convs.2.weight f4 [8, 8]
0	0x3f1d8b41	0.6154061
1	0x3f5d8348	0.86528444
2	0x3f1dddf7	0.61666816
3	0x3e8d5db2	0.27610546
4	0x3f2fb74b	0.6863906
5	0x3f92dd81	1.1473848
6	0x3faba017	1.340823
7	0x3fdd27b5	1.7277743
8	0x3ff39b94	1.9031854
9	0x3f692254	0.91068006
10	0x3fe266e1	1.7687646
11	0x3fc43f59	1.5331832
12	0x3fafa03a	1.3720772
13	0x40023b43	2.034867
14	0x3fa4c972	1.2873976
15	0x3f7cabe4	0.98699784
16	0x3f07298a	0.5279776
17	0x3f7c68e1	0.9859753
18	0x3f9866d9	1.1906387
19	0x3fd34fba	1.6508706
20	0x3fe035c4	1.7516408
21	0x3f5d6480	0.86481476
22	0x3eca7f9a	0.39550477
23	0x3f4cf173	0.8005592
24	0x3f573816	0.84069955
25	0x3fe654b2	1.7994597
26	0x3f559a46	0.8343853
27	0x40022d65	2.0340207
28	0x3e701605	0.234459
29	0x3f8341be	1.0254438
30	0x3f32557d	0.69661695
31	0x3fa69648	1.3014612
32	0x3f59ddc3	0.85104007
33	0x3fc62a7e	1.5481718
34	0x3f2744fd	0.6533964
35	0x3fb73f39	1.4316169
36	0x3f1f5306	0.6223606
37	0x3efdc5c0	0.49564934
38	0x3f05c720	0.52256966
39	0x3f8cf1af	1.1011256
40	0x3fa845d8	1.3146315
41	0x3f820f23	1.0160869
42	0x3f74b316	0.95585763
43	0x3f8b56c7	1.0885857
44	0x3fa1c968	1.2639589
45	0x3f932f12	1.149874
46	0x3f96383b	1.173591
47	0x3f69b7ba	0.9129597
48	0x3f7220f2	0.9458152
49	0x3c08509b	0.008319999
50	0x3fa9c386	1.3262794
51	0x3ec7c356	0.39016217
52	0x3fa6aa24	1.3020673
53	0x3f356b0f	0.70866483
54	0x3d119236	0.03553983
55	0x3fa98201	1.3242799
56	0x401333cc	2.3000364
57	0x3faaf710	1.3356647
58	0x3f39c7f7	0.7257075
59	0x3ff7840f	1.9337176
60	0x3f86acfa	1.0521538
61	0x3f6d9c7e	0.92816913
62	0x3eff2c9b	0.4983872
63	0x3f5cf8c3	0.8631708

convs.2.bias f4 [8]
0	0xbe8fc1c5	-0.28077522
1	0xbe925ed8	-0.28587985
2	0x3eb03acc	0.34419858
3	0x3a2ce58f	0.0006595486
4	0xbe57e2a4	-0.2108255
5	0x3e39aa39	0.18131341
6	0x3e7757f7	0.2415465
7	0x3e81accd	0.2532715

convs.3.weight f4 [16, 4, 4, 5]
0	0xbe85a0be	-0.260992
1	0xbf8d078d	-1.1017929
2	0x3f4f601e	0.8100604
3	0xbfa34e3a	-1.2758248
4	0xbf427980	-0.75966644
5	0xbf1939a8	-0.598536
6	0x3f6cc407	0.92486614
7	0xbea2bb74	-0.3178364
8	0xbf118666	-0.568457
9	0x3f610051	0.8789111
10	0x3e266682	0.16250041
11	0xbfa69f81	-1.3017427
12	0xbd00c5db	-0.03143869
13	0x3dbdb914	0.092638165
14	0xbf2908be	-0.66028965
15	0xbf80128b	-1.0005659
16	0x3f9e78c1	1.2380601
17	0x3f8b0dd3	1.0863594
18	0x3eb5194c	0.35370862
19	0xbe5458a5	-0.2073694
20	0xbf368a07	-0.71304363
21	0xbf930ae2	-1.1487696
22	0x400d941e	2.2121654
23	0xbf4e9179	-0.80690724
24	0x3e295c6f	0.16539167
25	0x3e2c2332	0.16810301
26	0xbed27167	-0.41102144
27	0x3e5a5068	0.21319735
28	0x3e929dc4	0.2863599
29	0xbedcb01f	-0.4310312
30	0xbf39237a	-0.7231976
31	0xbed01fc4	-0.40649235
32	0xbf9ba7e7	-1.2160615
33	0xbecdbf65	-0.40185085
34	0x3f9095ea	1.129575
35	0x3ed24832	0.41070706
36	0xbff234fb	-1.8922418
37	0x3f852115	1.0400721
38	0xbf8c048d	-1.0938889
39	0xbfab70ff	-1.3393859
40	0x3f8fce1d	1.1234776
41	0xbf9590c5	-1.1684805
42	0x3f3d2b9e	0.7389468
43	0xbdb049f9	-0.08607859
44	0x3e8e9b39	0.278528
45	0xbf6067f0	-0.87658596
46	0x3f13e1e9	0.57766587
47	0x3f7e4a16	0.99331796
48	0x3fffbc30	1.9979305
49	0x3fac2fe6	1.3452117
50	0xbfdc645b	-1.7218126
51	0x3f38230c	0.7192848
52	0x3f022635	0.5083955
53	0x3f4668c9	0.7750364
54	0xc00957dc	-2.1459875
55	0xbee420a8	-0.44556165
56	0x3f0f66d5	0.56016284
57	0xbf67e52b	-0.9058406
58	0xbe51f984	-0.20505339
59	0xbf62ca0e	-0.8858956
60	0xbf6bb57b	-0.9207379
61	0xbf422549	-0.7583814
62	0x3ec1dc5c	0.37863433
63	0x3a611bf7	0.0008587236
64	0x3fc95984	1.5730443
65	0x3eaa3b7e	0.33248514
66	0xbcc30d62	-0.023810092
67	0xbf78697c	-0.97035956
68	0xbe503c53	-0.20335512
69	0xbe00fdc2	-0.12596801
70	0x4005dae4	2.091485
71	0xbf818d29	-1.0121204
72	0x3f71a28a	0.9438864
73	0xbee03a12	-0.43794304
74	0xbde25c92	-0.11052813
75	0x3fe73de4	1.8065763
76	0xc006b1f4	-2.1046114
77	0xbbbdd163	-0.005792783
78	0xc00e7c87	-2.2263505
79	0xbe477d46	-0.19481382
80	0xbfa7e365	-1.311627
81	0xbfb666db	-1.4250139
82	0xbdda6d34	-0.1066536
83	0xbfe76180	-1.807663
84	0x3e37ca99	0.17948379
85	0xbeb74137	-0.35791942
86	0xbec3a365	-0.38210598
87	0x3f5c0943	0.8595163
88	0x3ddcf6dc	0.10789272
89	0x3f6541fe	0.8955382
90	0xbf8dfdee	-1.1093118
91	0x3fbc1774	1.4694657
92	0x3d70f1a2	0.05882419
93	0x3e32cd1a	0.17461053
94	0x3f803d17	1.0018643
95	0x3eb4b623	0.3529521
96	0xbf4fe377	-0.8120646
97	0x3e89f5b7	0.26945278
98	0x3e8e8ca9	0.2784169
99	0x3f99b760	1.2009087
100	0x3f83cde3	1.0297207
101	0x3d24f493	0.040272307
102	0x3df7f67c	0.1210756
103	0xbf246be2	-0.64227116
104	0x3f5a9f6a	0.85399497
105	0x403a9379	2.915251
106	0xbe8e9e7c	-0.2785529
107	0xc00fbc2c	-2.24586
108	0x3cab4150	0.020905167
109	0x3ea059df	0.31318566
110	0xbf365a1b	-0.7123124
111	0x3edcf02d	0.4315199
112	0xbdc27845	-0.09495596
113	0xbe88b2af	-0.26698825
114	0x3fbc170f	1.4694537
115	0x3eba3ef7	0.36376163
116	0x3f30d4a3	0.6907446
117	0xbf86866b	-1.0509771
118	0xbf5fa40d	-0.87359697
119	0x3fd8953b	1.6920542
120	0xbeefdd0d	-0.46848336
121	0xbf96c33c	-1.1778331
122	0xbf9abba6	-1.2088516
123	0x3f335eae	0.70066345
124	0x3fe7a68f	1.8097705
125	0xc0255de7	-2.5838563
126	0xbfca686c	-1.5813117
127	0x3fdae287	1.7100381
128	0xbfa55d5e	-1.2919118
129	0x3fb10033	1.3828186
130	0xbe17de35	-0.14830859
131	0xbeab31c9	-0.3343642
132	0x3fdbfb20	1.7186012
133	0x3f51157e	0.8167342
134	0xbff9526b	-1.9478277
135	0xbfa4362d	-1.2829033
136	0x3ecd9bba	0.40157872
137	0xbfd7fc58	-1.6873884
138	0x3f0ef2f1	0.5583945
139	0xbf478186	-0.7793201
140	0xbe5db76c	-0.21652001
141	0xbf6c40ba	-0.92286265
142	0xbf8bd18a	-1.0923321
143	0xbee7597c	-0.4518546
144	0x3eb67676	0.35637254
145	0x3fe29123	1.7700542
146	0xbf47e176	-0.780784
147	0x3d19468e	0.0374208
148	0x3f8ff8e5	1.1247832
149	0xbedea446	-0.43484706
150	0x3f8ebecd	1.1151978
151	0x3e95a890	0.29230165
152	0xc005a7cf	-2.0883672
153	0xbe91851b	-0.28421864
154	0xbd4aa95c	-0.04947792
155	0xbeab78a5	-0.33490482
156	0x3f2dd3cf	0.6790132
157	0x3fbf1a93	1.4929985
158	0x3eaa6237	0.33278057
159	0x3ed18159	0.40918997
160	0x3f00e616	0.50351083
161	0x3f680d70	0.90645504
162	0x3e8f85f6	0.28031892
163	0x3e78a554	0.24281818
164	0xbf02f0f7	-0.51148933
165	0x3f83fca5	1.0311476
166	0xbf3180b8	-0.69337034
167	0xbf8a5a18	-1.0808744
168	0x3faa9688	1.3327188
169	0x3d5c5461	0.053791407
170	0x3d9236bf	0.07139348
171	0xbf7a1079	-0.97681385
172	0xbf0b3dda	-0.54391253
173	0x3fb9bd2d	1.4510857
174	0xbe8f8df5	-0.28037992
175	0x3fab10b6	1.3364475
176	0x3fc8e0fa	1.5693657
177	0xbfc070e8	-1.5034456
178	0x3f460310	0.77348423
179	0xbf23f63c	-0.640476
180	0x3dbed393	0.09317698
181	0xba2cddb5	-0.0006594316
182	0xc0222652	-2.533589
183	0x3e9149c9	0.28376606
184	0x3e08dc89	0.13365377
185	0x3e5718a4	0.21005493
186	0xbe4942de	-0.19654414
187	0x3ec0a810	0.37628222
188	0xbf355ee1	-0.708479
189	0x3f9602b0	1.171957
190	0xbf920cdf	-1.1410178
191	0x3f054976	0.5206522
192	0x3fa6f531	1.3043576
193	0x3ffdcd14	1.982821
194	0x3e900be0	0.2813406
195	0xbf075ad8	-0.5287299
196	0x3f801790	1.0007191
197	0x3dd690da	0.10476847
198	0xbfb5a90b	-1.4192213
199	0x3ea4db16	0.321984
200	0x3fac48c7	1.345971
201	0x403adb30	2.9196281
202	0x3f8063ee	1.0030496
203	0xbe8d9993	-0.2765623
204	0x3f889379	1.0670005
205	0xbf69588d	-0.9115074
206	0xbdf74435	-0.12073556
207	0xbf4b4439	-0.79400975
208	0xbfe1dfa4	-1.7646375
209	0xbf843289	-1.0327922
210	0x3efecaef	0.497642
211	0x3dae4dc4	0.08510926
212	0x3ef9555b	0.48697934
213	0xbfab0e81	-1.3363801
214	0x3f9d897e	1.2307584
215	0x3f31a7d9	0.6939674
216	0xbd8d4f85	-0.06899933
217	0xbe230614	-0.15920287
218	0x3e0e7026	0.13909969
219	0xbf95fccb	-1.1717771
220	0xbf30eec0	-0.69114304
221	0x3ed0bed0	0.40770578
222	0xbe1165f4	-0.14199048
223	0xbc8cbdf9	-0.01718043
224	0xbee19e23	-0.4406596
225	0xbdf28c42	-0.11843158
226	0xbd9505d8	-0.07276505
227	0x3f9d1a1e	1.2273595
228	0x3fb32770	1.399641
229	0x3f8784bd	1.0587384
230	0xbfe711af	-1.8052272
231	0x3fed7417	1.8551053
232	0xbe656385	-0.22401245
233	0xbe443877	-0.19162165
234	0xbed09bb1	-0.40743783
235	0xbf5a1bad	-0.8519848
236	0xbf75f621	-0.9607869
237	0x3f1d41fe	0.6142882
238	0x3f921d06	1.1415107
239	0xbd3c85d8	-0.04602608
240	0xbff2f0f7	-1.8979787
241	0xc0263ed4	-2.5975847
242	0x3eaee437	0.3415849
243	0xbf985d7b	-1.1903528
244	0x3f7ed445	0.9954265
245	0x3fa51f2e	1.290014
246	0x3e60d8b0	0.2195766
247	0xbd9fbb38	-0.07799381
248	0x40281f97	2.626928
249	0xbfb40547	-1.406411
250	0xbe134a35	-0.14383776
251	0x3edf3cbc	0.43601024
252	0xbe008ee9	-0.12554516
253	0xbedac27f	-0.42726514
254	0x3f499cf1	0.787551
255	0x3f51c44d	0.81940156

convs.3.bias f4 [16]
0	0x3d961ba0	0.07329488
1	0x3dde3e63	0.10851743
2	0x3d3a2297	0.045443144
3	0xbd083d8a	-0.033261813
4	0xbd9a05e5	-0.075206555
5	0xbda3c188	-0.079958975
6	0x3d59ca53	0.053171467
7	0xbcfae43c	-0.030626409
8	0x3d0a159a	0.033712007
9	0x3d691b3a	0.05691073
10	0xbcbd5863	-0.023113435
11	0x3d1f0a2e	0.038828067
12	0x3b8ebc15	0.004355917
13	0xbba9b602	-0.0051791677
14	0x3dcb814e	0.09936772
15	0xbd8d0ac0	-0.06886816

convs.5.weight f4 [4, 4]
0	0x3deee130	0.11664045
1	0x3eebb48d	0.46036187
2	0x3f4a3db5	0.7900041
3	0x3e14af31	0.14519955
4	0x3e89d35a	0.2691906
5	0x3f34b9e8	0.7059617
6	0x3f990054	1.1953225
7	0x3ec87213	0.39149532
8	0x3ff665d9	1.9249831
9	0x3f860433	1.0470031
10	0x3f89dca8	1.0770464
11	0x3e981faf	0.29711673
12	0x3f3710d4	0.7151005
13	0x3f6df8fd	0.9295805
14	0x3f281b2d	0.65666467
15	0x3fc0c98d	1.5061508

convs.5.bias f4 [4]
0	0x3e53ab9e	0.20670936
1	0x3e3427cd	0.17593308
2	0xbee5b4cc	-0.448645
3	0xbd229fee	-0.039703302

convs.6.weight f4 [1, 16, 1, 1]
0	0x3eda021a	0.42579728
1	0xbe8f323f	-0.27968022
2	0x3f1be82f	0.6090116
3	0xbe5b85a6	-0.21437702
4	0xbdc60dbf	-0.096705906
5	0xbe48b202	-0.19599155
6	0xbd11fee8	-0.03564349
7	0x3f42e464	0.76129746
8	0x3fb33493	1.4000419
9	0xbec377b8	-0.38177276
10	0x3f8cf366	1.1011779
11	0x3e31c523	0.17360358
12	0xbf1c4d4b	-0.6105544
13	0xbf950109	-1.1640941
14	0x3ecf6bda	0.40511972
15	0x3cf8e04b	0.030380389
