tools/ML/Data/ML_DET_RES_5_Photo2.pt (torch, 10579 bytes, 20 tensors)

conv1.weight f4 [4, 1, 1, 3]
0.06432793 -0.0037453412 -0.06958387 -0.26133636 0.07311547 0.07803855 0.250534 -0.027943917
-0.32122284 0.5399264 -0.066450015 -0.688261
00000000: 5dbe 833d 6674 75bb fd81 8ebd e1cd 85be
00000010: 90bd 953d add2 9f3d fe45 803e a4ea e4bc
00000020: 5277 a4be 9e38 0a3f f216 88bd df31 30bf

conv1.bias f4 [4]
-0.12847362 0.04208799 0.29704642 -0.5599203
00000000: 978e 03be 7564 2c3d 7816 983e f056 0fbf

lin1.weight f4 [8, 8]
0.614107 0.8645685 0.6060284 0.28183627 0.6718454 1.1251681 1.3215021 1.7217313
1.9066911 0.8757085 1.7644459 1.500662 1.3712926 1.9767408 1.2753361 0.95486444
0.5845823 0.97727406 1.2208328 1.6228818 1.7583829 0.84084624 0.44409347 0.79206455
0.78216696 1.8430918 0.7983318 2.0719354 0.24106379 1.0864505 0.66284347 1.3486025
0.8549524 1.480254 0.6585257 1.3615787 0.62399596 0.46409836 0.5376946 1.0323482
1.2628033 1.0052251 0.9309712 1.0951368 1.2293801 1.1684434 1.1097362 0.92491627
0.86216915 -0.05119596 1.2338804 0.3288534 1.2135922 0.63756996 -0.01864574 1.2235551
2.3446865 1.3556817 0.77654314 1.9486904 1.0907042 0.94974786 0.5383598 0.894197
00000000: 1e36 1d3f 5c54 5d3f ad24 1b3f d84c 903e
00000010: 0ffe 2b3f 8205 903f fb26 a93f b161 dc3f
00000020: 740e f43f 6f2e 603f 5dd9 e13f b115 c03f
00000030: 8486 af3f d805 fd3f 373e a33f ff71 743f
00000040: 30a7 153f a22e 7a3f 4044 9c3f 97ba cf3f
00000050: b112 e13f b341 573f 3860 e33e bec4 4a3f
00000060: 183c 483f 6fea eb3f 795f 4c3f 979a 0440
00000070: 6dd9 763e cf10 8b3f 1cb0 293f 029f ac3f
00000080: 29de 5a3f f778 bd3f 2495 283f 3648 ae3f
00000090: 33be 1f3f 4d9e ed3e 5aa6 093f fc23 843f
000000a0: 8aa3 a13f 37ab 803f 2154 6e3f 712d 8c3f
000000b0: 545c 9d3f 8e8f 953f d60b 8e3f 50c7 6c3f
000000c0: 1eb7 5c3f dbb2 51bd cbef 9d3f 795f a83e
000000d0: fd56 9b3f c937 233f f3be 98bc 749d 9c3f
000000e0: 580f 1640 fa86 ad3f 88cb 463f b06e f93f
000000f0: 329c 8b3f ad22 733f f3d1 093f 18ea 643f

lin1.bias f4 [8]
-0.26715183 -0.28839108 0.3382842 0.000516316 -0.211666 0.17910346 0.24326004 0.26046225
00000000: 20c8 88be ffa7 93be 9633 ad3e 6159 073a
00000010: f9be 58be e666 373e 2919 793e 4f5b 853e

conv2.weight f4 [16, 4, 4, 5]
-0.26007885 -1.1015916 0.81031436 -1.2724018 -0.75763834 -0.6031563 0.92154 -0.31942132
-0.5727961 0.87445587 0.1648718 -1.2990637 -0.02918805 0.094924375 -0.65773106 -0.9962672
1.2418162 1.0886029 0.3577289 -0.20141219 -0.7121178 -1.1460748 2.2162075 -0.8044449
0.16510428 0.1682647 -0.41430187 0.21054073 0.28377452 -0.43175712 -0.723035 -0.4067557
-1.2167428 -0.40227914 1.1292961 0.4108135 -1.8938226 1.0387889 -1.0938483 -1.3383898
1.1230413 -1.1697013 0.73786813 -0.084522225 0.2793049 -0.8782792 0.57647425 0.99408954
1.9959675 1.3443476 -1.7203348 0.72109294 0.5091105 0.77621996 -2.145612 -0.44222972
0.56275725 -0.90329814 -0.20119843 -0.8831266 -0.9199272 -0.757733 0.379316 0.0043547098
1.5755163 0.32992512 -0.026264707 -0.97039217 -0.20657894 -0.12770453 2.0930736 -1.0102134
0.94439584 -0.43639386 -0.109738596 1.8094381 -2.1022444 -0.0029326063 -2.2231536 -0.19238774
-1.3095475 -1.4239094 -0.10492151 -1.8122909 0.17854689 -0.34670722 -0.37323228 0.8641699
0.11830858 0.9035185 -1.1115369 1.4657831 0.05511388 0.17136808 0.99894214 0.3486698
-0.8164521 0.26556474 0.2739026 1.1960443 1.0332807 0.03844116 0.11568036 -0.6432548
0.860643 2.9127555 -0.2746501 -2.2426195 0.031003563 0.30735606 -0.67458516 0.49216148
-0.05826784 -0.23779474 1.4837615 0.37238288 0.741393 -1.0227672 -0.8182165 1.6749104
-0.45851126 -1.1756723 -1.203532 0.6898526 1.8106009 -2.5800385 -1.5834733 1.6994778
-1.2865703 1.3737191 -0.1514038 -0.33702222 1.7167176 0.81385326 -1.949383 -1.2876396
0.397162 -1.6914637 0.5527814 -0.7830139 -0.20883246 -0.93218684 -1.0939078 -0.48241183
0.3496402 1.7842644 -0.7768278 0.025249979 1.1415268 -0.44626755 1.1113843 0.28921464
-2.0902436 -0.2882064 -0.051756058 -0.34104377 0.67292434 1.4879746 0.3257624 0.40503252
0.5019097 0.91100717 0.28174564 0.25852478 -0.5086978 1.007537 -0.71256065 -1.0922966
1.3116996 0.0384954 0.0734576 -0.97423667 -0.5424576 1.4522272 -0.2779034 1.3408605
1.5735974 -1.5009857 0.7775836 -0.6347019 0.088600144 0.008965971 -2.5182443 0.29269716
0.11783192 0.21497141 -0.20337723 0.36902025 -0.7383222 1.1940521 -1.2020086 0.460541
1.2601777 1.9480978 0.23318994 -0.51919276 0.89314026 0.0465489 -1.545817 0.3896626
1.3271636 2.931128 1.0004594 -0.22831592 1.0654901 -0.92256105 -0.1112935 -0.76228034
-1.7789437 -1.0024471 0.5003395 0.088146746 0.48905426 -1.3343265 1.2326511 0.70241004
-0.060279712 -0.1519824 0.14769438 -1.1647342 -0.69571954 0.46512085 -0.115351215 0.10463993
-0.41800037 -0.16603003 -0.08333499 1.2631903 1.3463448 1.0946358 -1.8010997 1.8590046
-0.22040291 -0.18783017 -0.4037248 -0.8394882 -0.9472286 0.624932 1.1537713 -0.03584753
-1.8990484 -2.5979607 0.34140602 -1.1937692 0.9934116 1.2944224 0.22323593 -0.076164044
2.630846 -1.4021475 -0.14621216 0.4330211 -0.12764528 -0.42917025 0.7849931 0.8151041
00000000: 0e29 85be f400 8dbf c370 4f3f 10de a2bf
00000010: 96f4 41bf 7468 1abf 0cea 6b3f 318b a3be
00000020: c4a2 12bf 57dc 5f3f 27d4 283e b847 a6bf
00000030: c71b efbc b667 c23d 1061 28bf 5e0b 7fbf
00000040: d5f3 9e3f 5757 8b3f 3e28 b73e ff3e 4ebe
00000050: 5a4d 36bf 94b2 92bf 58d6 0d40 1af0 4dbf
00000060: 1911 293e 954d 2c3e 601f d4be fd97 573e
00000070: e54a 913e 450f ddbe d218 39bf 4842 d0be
00000080: 3abe 9bbf 88f7 cdbe c68c 903f 2656 d23e
00000090: c768 f2bf 09f7 843f 3903 8cbf 5b50 abbf
000000a0: d1bf 8f3f c6b8 95bf ede4 3c3f fd19 adbd
000000b0: 0d01 8f3e e8d6 60bf d193 133f a77c 7e3f
000000c0: dd7b ff3f 9513 ac3f ee33 dcbf 8c99 383f
000000d0: 1155 023f 5ab6 463f b551 09c0 ef6b e2be
000000e0: dc10 103f 8c3e 67bf f606 4ebe 9614 62bf
000000f0: 5980 6bbf cafa 41bf b535 c23e f4b1 8e3b
00000100: 85aa c93f f2eb a83e 1529 d7bc 9f6b 78bf
00000110: 6e89 53be fac4 02be ebf4 0540 ac4e 81bf
00000120: edc3 713f 046f dfbe a1be e0bd ab9b e73f
00000130: 2c8b 06c0 f830 40bb 2648 0ec0 4b01 45be
00000140: 419f a7bf aa42 b6bf 17e1 d6bd 26f9 e7bf
00000150: ffd4 363e 9c83 b1be 4d18 bfbe 3d3a 5d3f
00000160: c54b f23d fd4c 673f d746 8ebf c89e bb3f
00000170: 18bf 613d 1d7b 2f3e acba 7f3f d984 b23e
00000180: 0103 51bf 1af8 873e f63c 8c3e fb17 993f
00000190: 8b42 843f 7a74 1d3d d3e9 ec3d 59ac 24bf
000001a0: 1a53 5c3f 966a 3a40 f09e 8cbe 1487 0fc0
000001b0: 2ffb fd3c c65d 9d3e 9db1 2cbf 97fc fb3e
000001c0: 42aa 6ebd 7780 73be e6eb bd3f f8a8 be3e
000001d0: efcb 3d3f 09ea 82bf a376 51bf 7763 d63f
000001e0: fdc1 eabe 6e7c 96bf 560d 9abf 2e9a 303f
000001f0: c5c1 e73f 5a1f 25c0 41af cabf 7d88 d93f
00000200: 56ae a4bf 07d6 af3f 9909 1bbe 2d8e acbe
00000210: 67bd db3f b058 503f 6285 f9bf 60d1 a4bf
00000220: d158 cb3e e281 d8bf 1583 0d3f 9973 48bf
00000230: 2dd8 55be cca3 6ebf 2c05 8cbf affe f6be
00000240: 0a04 b33e c762 e43f 30de 46bf 0bd9 ce3c
00000250: 8d1d 923f 2e7d e4be d741 8e3f f113 943e
00000260: 8dc6 05c0 ca8f 93be 29fe 53bd 4a9d aebe
00000270: c544 2c3f f475 be3f 54ca a63e 6c60 cf3e
00000280: 277d 003f c437 693f f740 903e 5c5d 843e
00000290: 053a 02bf f9f6 803f 606a 36bf 60d0 8bbf
000002a0: c6e5 a73f 5aad 1d3d f070 963d 9367 79bf
000002b0: 80de 0abf 95e2 b93f 5b49 8ebe 51a1 ab3f
000002c0: a46b c93f 4d20 c0bf b80f 473f d37b 22bf
000002d0: fe73 b53d 02e6 123c ea2a 21c0 67dc 953e
000002e0: dd51 f13d 7721 5c3e 1f42 50be 39f0 bc3e
000002f0: af02 3dbf b3d6 983f 6bdb 99bf 08cc eb3e
00000300: 814d a13f 455b f93f 58c9 6e3e d1e9 04bf
00000310: d7a4 643f 0faa 3e3d 55dd c5bf db81 c73e
00000320: 7fe0 a93f 9a97 3b40 0e0f 803f a6cb 69be
00000330: fb61 883f f62c 6cbf d9ed e3bd ce24 43bf
00000340: 6db4 e3bf 3050 80bf 4016 003f 4886 b43d
00000350: 5265 fa3e 36cb aabf 83c7 9d3f 25d1 333f
00000360: dce7 76bd 46a1 1bbe 323d 173e 0316 95bf
00000370: ad1a 32bf 5224 ee3e 423d ecbd 764d d63d
00000380: 2504 d6be c703 2abe 89ab aabd 38b0 a13f
00000390: 0755 ac3f 071d 8c3f 6f8a e6bf ddf3 ed3f
000003a0: 4db1 61be 8d56 40be 04b5 cebe b3e8 56bf
000003b0: 937d 72bf 8bfb 1f3f c7ae 933f dcd4 12bd
000003c0: 0514 f3bf fd44 26c0 c5cc ae3e 6ecd 98bf
000003d0: 3950 7e3f a2af a53f f697 643e e5fb 9bbd
000003e0: c85f 2840 9279 b3bf a4b8 15be f1b4 dd3e
000003f0: 72b5 02be 34bc dbbe 4ff5 483f aaaa 503f

conv2.bias f4 [16]
0.07263118 0.10999477 0.044289127 -0.032576285 -0.07406696 -0.079281315 0.054117855 -0.03141789
0.033041976 0.056953188 -0.023793884 0.038169254 0.004686534 -0.00459382 0.09555789 -0.069279164
00000000: a8bf 943d f044 e13d 8468 353d b66e 05bd
00000010: 6bb0 97bd 3e5e a2bd afaa 5d3d 0cb0 00bd
00000020: 0657 073d bf47 693d 64eb c2bc 5d57 1c3d
00000030: 7f91 993b c187 96bb dbb3 c33d 3ce2 8dbd

lin2.weight f4 [4, 4]
0.063105196 0.45153603 0.6205877 0.08114806 0.18919785 0.6566417 1.2019216 0.28402194
1.8632215 0.93911254 0.99071646 0.090540275 0.62980396 0.832848 0.5052707 1.5358167
00000000: 4c3d 813d bb2f e73e d6de 1e3f f430 a63d
00000010: 15bd 413e ac19 283f 91d8 993f 536b 913e
00000020: 0b7e ee3f ae69 703f 989f 7d3f 2e6d b93d
00000030: d53a 213f 8735 553f 6c59 013f a495 c43f

lin2.bias f4 [4]
0.20715852 0.16958156 -0.45705804 -0.054139037
00000000: 5d21 543e caa6 2d3e 8303 eabe e5c0 5dbd

conv3.weight f4 [1, 16, 1, 1]
0.42762703 -0.16425696 0.72989374 -0.21638949 -0.014367745 -0.19874221 -0.04303185 0.55665797
1.4045776 -0.2822851 1.1043799 0.17409904 -0.6894816 -1.1518307 0.25997466 -0.038479567
00000000: eef1 da3e fa32 28be 51da 3a3f 3595 5dbe
00000010: b166 6bbc 1483 4bbe 2a42 30bd 2381 0e3f
00000020: 33c9 b33f ac87 90be 525c 8d3f 0547 323e
00000030: de81 30bf 306f 93bf 661b 853e c09c 1dbd

lin3.weight f4 [4, 4]
2.310715 -1.333358 -0.060145073 0.007678732 1.0262859 1.1539307 0.001018851 -0.050554894
0.77701384 -1.2245443 0.9999653 -0.001031767 0.29686597 -0.9419815 0.013033278 0.97597194
00000000: c1e2 1340 7aab aabf ae5a 76bd df9d fb3b
00000010: 565d 833f 00b4 933f f78a 853a a612 4fbd
00000020: 61ea 463f debd 9cbf bafd 7f3f 5b3c 87ba
00000030: d1fe 973e b325 71bf 8889 553c 4cd9 793f

lin3.bias f4 [4]
-23.31389 18.618202 22.164137 24.578884
00000000: d982 bac1 14f2 9441 2750 b141 8ea1 c441

convs.0.weight f4 [4, 1, 1, 3]
0.06432793 -0.0037453412 -0.06958387 -0.26133636 0.07311547 0.07803855 0.250534 -0.027943917
-0.32122284 0.5399264 -0.066450015 -0.688261
00000000: 5dbe 833d 6674 75bb fd81 8ebd e1cd 85be
00000010: 90bd 953d add2 9f3d fe45 803e a4ea e4bc
00000020: 5277 a4be 9e38 0a3f f216 88bd df31 30bf

convs.0.bias f4 [4]
-0.12847362 0.04208799 0.29704642 -0.5599203
00000000: 978e 03be 7564 2c3d 7816 983e f056 0fbf

convs.2.weight f4 [8, 8]
0.614107 0.8645685 0.6060284 0.28183627 0.6718454 1.1251681 1.3215021 1.7217313
1.9066911 0.8757085 1.7644459 1.500662 1.3712926 1.9767408 1.2753361 0.95486444
0.5845823 0.97727406 1.2208328 1.6228818 1.7583829 0.84084624 0.44409347 0.79206455
0.78216696 1.8430918 0.7983318 2.0719354 0.24106379 1.0864505 0.66284347 1.3486025
0.8549524 1.480254 0.6585257 1.3615787 0.62399596 0.46409836 0.5376946 1.0323482
1.2628033 1.0052251 0.9309712 1.0951368 1.2293801 1.1684434 1.1097362 0.92491627
0.86216915 -0.05119596 1.2338804 0.3288534 1.2135922 0.63756996 -0.01864574 1.2235551
2.3446865 1.3556817 0.77654314 1.9486904 1.0907042 0.94974786 0.5383598 0.894197
00000000: 1e36 1d3f 5c54 5d3f ad24 1b3f d84c 903e
00000010: 0ffe 2b3f 8205 903f fb26 a93f b161 dc3f
00000020: 740e f43f 6f2e 603f 5dd9 e13f b115 c03f
00000030: 8486 af3f d805 fd3f 373e a33f ff71 743f
00000040: 30a7 153f a22e 7a3f 4044 9c3f 97ba cf3f
00000050: b112 e13f b341 573f 3860 e33e bec4 4a3f
00000060: 183c 483f 6fea eb3f 795f 4c3f 979a 0440
00000070: 6dd9 763e cf10 8b3f 1cb0 293f 029f ac3f
00000080: 29de 5a3f f778 bd3f 2495 283f 3648 ae3f
00000090: 33be 1f3f 4d9e ed3e 5aa6 093f fc23 843f
000000a0: 8aa3 a13f 37ab 803f 2154 6e3f 712d 8c3f
000000b0: 545c 9d3f 8e8f 953f d60b 8e3f 50c7 6c3f
000000c0: 1eb7 5c3f dbb2 51bd cbef 9d3f 795f a83e
000000d0: fd56 9b3f c937 233f f3be 98bc 749d 9c3f
000000e0: 580f 1640 fa86 ad3f 88cb 463f b06e f93f
000000f0: 329c 8b3f ad22 733f f3d1 093f 18ea 643f

convs.2.bias f4 [8]
-0.26715183 -0.28839108 0.3382842 0.000516316 -0.211666 0.17910346 0.24326004 0.26046225
00000000: 20c8 88be ffa7 93be 9633 ad3e 6159 073a
00000010: f9be 58be e666 373e 2919 793e 4f5b 853e

convs.3.weight f4 [16, 4, 4, 5]
-0.26007885 -1.1015916 0.81031436 -1.2724018 -0.75763834 -0.6031563 0.92154 -0.31942132
-0.5727961 0.87445587 0.1648718 -1.2990637 -0.02918805 0.094924375 -0.65773106 -0.9962672
1.2418162 1.0886029 0.3577289 -0.20141219 -0.7121178 -1.1460748 2.2162075 -0.8044449
0.16510428 0.1682647 -0.41430187 0.21054073 0.28377452 -0.43175712 -0.723035 -0.4067557
-1.2167428 -0.40227914 1.1292961 0.4108135 -1.8938226 1.0387889 -1.0938483 -1.3383898
1.1230413 -1.1697013 0.73786813 -0.084522225 0.2793049 -0.8782792 0.57647425 0.99408954
1.9959675 1.3443476 -1.7203348 0.72109294 0.5091105 0.77621996 -2.145612 -0.44222972
0.56275725 -0.90329814 -0.20119843 -0.8831266 -0.9199272 -0.757733 0.379316 0.0043547098
1.5755163 0.32992512 -0.026264707 -0.97039217 -0.20657894 -0.12770453 2.0930736 -1.0102134
0.94439584 -0.43639386 -0.109738596 1.8094381 -2.1022444 -0.0029326063 -2.2231536 -0.19238774
-1.3095475 -1.4239094 -0.10492151 -1.8122909 0.17854689 -0.34670722 -0.37323228 0.8641699
0.11830858 0.9035185 -1.1115369 1.4657831 0.05511388 0.17136808 0.99894214 0.3486698
-0.8164521 0.26556474 0.2739026 1.1960443 1.0332807 0.03844116 0.11568036 -0.6432548
0.860643 2.9127555 -0.2746501 -2.2426195 0.031003563 0.30735606 -0.67458516 0.49216148
-0.05826784 -0.23779474 1.4837615 0.37238288 0.741393 -1.0227672 -0.8182165 1.6749104
-0.45851126 -1.1756723 -1.203532 0.6898526 1.8106009 -2.5800385 -1.5834733 1.6994778
-1.2865703 1.3737191 -0.1514038 -0.33702222 1.7167176 0.81385326 -1.949383 -1.2876396
0.397162 -1.6914637 0.5527814 -0.7830139 -0.20883246 -0.93218684 -1.0939078 -0.48241183
0.3496402 1.7842644 -0.7768278 0.025249979 1.1415268 -0.44626755 1.1113843 0.28921464
-2.0902436 -0.2882064 -0.051756058 -0.34104377 0.67292434 1.4879746 0.3257624 0.40503252
0.5019097 0.91100717 0.28174564 0.25852478 -0.5086978 1.007537 -0.71256065 -1.0922966
1.3116996 0.0384954 0.0734576 -0.97423667 -0.5424576 1.4522272 -0.2779034 1.3408605
1.5735974 -1.5009857 0.7775836 -0.6347019 0.088600144 0.008965971 -2.5182443 0.29269716
0.11783192 0.21497141 -0.20337723 0.36902025 -0.7383222 1.1940521 -1.2020086 0.460541
1.2601777 1.9480978 0.23318994 -0.51919276 0.89314026 0.0465489 -1.545817 0.3896626
1.3271636 2.931128 1.0004594 -0.22831592 1.0654901 -0.92256105 -0.1112935 -0.76228034
-1.7789437 -1.0024471 0.5003395 0.088146746 0.48905426 -1.3343265 1.2326511 0.70241004
-0.060279712 -0.1519824 0.14769438 -1.1647342 -0.69571954 0.46512085 -0.115351215 0.10463993
-0.41800037 -0.16603003 -0.08333499 1.2631903 1.3463448 1.0946358 -1.8010997 1.8590046
-0.22040291 -0.18783017 -0.4037248 -0.8394882 -0.9472286 0.624932 1.1537713 -0.03584753
-1.8990484 -2.5979607 0.34140602 -1.1937692 0.9934116 1.2944224 0.22323593 -0.076164044
2.630846 -1.4021475 -0.14621216 0.4330211 -0.12764528 -0.42917025 0.7849931 0.8151041
00000000: 0e29 85be f400 8dbf c370 4f3f 10de a2bf
00000010: 96f4 41bf 7468 1abf 0cea 6b3f 318b a3be
00000020: c4a2 12bf 57dc 5f3f 27d4 283e b847 a6bf
00000030: c71b efbc b667 c23d 1061 28bf 5e0b 7fbf
00000040: d5f3 9e3f 5757 8b3f 3e28 b73e ff3e 4ebe
00000050: 5a4d 36bf 94b2 92bf 58d6 0d40 1af0 4dbf
00000060: 1911 293e 954d 2c3e 601f d4be fd97 573e
00000070: e54a 913e 450f ddbe d218 39bf 4842 d0be
00000080: 3abe 9bbf 88f7 cdbe c68c 903f 2656 d23e
00000090: c768 f2bf 09f7 843f 3903 8cbf 5b50 abbf
000000a0: d1bf 8f3f c6b8 95bf ede4 3c3f fd19 adbd
000000b0: 0d01 8f3e e8d6 60bf d193 133f a77c 7e3f
000000c0: dd7b ff3f 9513 ac3f ee33 dcbf 8c99 383f
000000d0: 1155 023f 5ab6 463f b551 09c0 ef6b e2be
000000e0: dc10 103f 8c3e 67bf f606 4ebe 9614 62bf
000000f0: 5980 6bbf cafa 41bf b535 c23e f4b1 8e3b
00000100: 85aa c93f f2eb a83e 1529 d7bc 9f6b 78bf
00000110: 6e89 53be fac4 02be ebf4 0540 ac4e 81bf
00000120: edc3 713f 046f dfbe a1be e0bd ab9b e73f
00000130: 2c8b 06c0 f830 40bb 2648 0ec0 4b01 45be
00000140: 419f a7bf aa42 b6bf 17e1 d6bd 26f9 e7bf
00000150: ffd4 363e 9c83 b1be 4d18 bfbe 3d3a 5d3f
00000160: c54b f23d fd4c 673f d746 8ebf c89e bb3f
00000170: 18bf 613d 1d7b 2f3e acba 7f3f d984 b23e
00000180: 0103 51bf 1af8 873e f63c 8c3e fb17 993f
00000190: 8b42 843f 7a74 1d3d d3e9 ec3d 59ac 24bf
000001a0: 1a53 5c3f 966a 3a40 f09e 8cbe 1487 0fc0
000001b0: 2ffb fd3c c65d 9d3e 9db1 2cbf 97fc fb3e
000001c0: 42aa 6ebd 7780 73be e6eb bd3f f8a8 be3e
000001d0: efcb 3d3f 09ea 82bf a376 51bf 7763 d63f
000001e0: fdc1 eabe 6e7c 96bf 560d 9abf 2e9a 303f
000001f0: c5c1 e73f 5a1f 25c0 41af cabf 7d88 d93f
00000200: 56ae a4bf 07d6 af3f 9909 1bbe 2d8e acbe
00000210: 67bd db3f b058 503f 6285 f9bf 60d1 a4bf
00000220: d158 cb3e e281 d8bf 1583 0d3f 9973 48bf
00000230: 2dd8 55be cca3 6ebf 2c05 8cbf affe f6be
00000240: 0a04 b33e c762 e43f 30de 46bf 0bd9 ce3c
00000250: 8d1d 923f 2e7d e4be d741 8e3f f113 943e
00000260: 8dc6 05c0 ca8f 93be 29fe 53bd 4a9d aebe
00000270: c544 2c3f f475 be3f 54ca a63e 6c60 cf3e
00000280: 277d 003f c437 693f f740 903e 5c5d 843e
00000290: 053a 02bf f9f6 803f 606a 36bf 60d0 8bbf
000002a0: c6e5 a73f 5aad 1d3d f070 963d 9367 79bf
000002b0: 80de 0abf 95e2 b93f 5b49 8ebe 51a1 ab3f
000002c0: a46b c93f 4d20 c0bf b80f 473f d37b 22bf
000002d0: fe73 b53d 02e6 123c ea2a 21c0 67dc 953e
000002e0: dd51 f13d 7721 5c3e 1f42 50be 39f0 bc3e
000002f0: af02 3dbf b3d6 983f 6bdb 99bf 08cc eb3e
00000300: 814d a13f 455b f93f 58c9 6e3e d1e9 04bf
00000310: d7a4 643f 0faa 3e3d 55dd c5bf db81 c73e
00000320: 7fe0 a93f 9a97 3b40 0e0f 803f a6cb 69be
00000330: fb61 883f f62c 6cbf d9ed e3bd ce24 43bf
00000340: 6db4 e3bf 3050 80bf 4016 003f 4886 b43d
00000350: 5265 fa3e 36cb aabf 83c7 9d3f 25d1 333f
00000360: dce7 76bd 46a1 1bbe 323d 173e 0316 95bf
00000370: ad1a 32bf 5224 ee3e 423d ecbd 764d d63d
00000380: 2504 d6be c703 2abe 89ab aabd 38b0 a13f
00000390: 0755 ac3f 071d 8c3f 6f8a e6bf ddf3 ed3f
000003a0: 4db1 61be 8d56 40be 04b5 cebe b3e8 56bf
000003b0: 937d 72bf 8bfb 1f3f c7ae 933f dcd4 12bd
000003c0: 0514 f3bf fd44 26c0 c5cc ae3e 6ecd 98bf
000003d0: 3950 7e3f a2af a53f f697 643e e5fb 9bbd
000003e0: c85f 2840 9279 b3bf a4b8 15be f1b4 dd3e
000003f0: 72b5 02be 34bc dbbe 4ff5 483f aaaa 503f

convs.3.bias f4 [16]
0.07263118 0.10999477 0.044289127 -0.032576285 -0.07406696 -0.079281315 0.054117855 -0.03141789
0.033041976 0.056953188 -0.023793884 0.038169254 0.004686534 -0.00459382 0.09555789 -0.069279164
00000000: a8bf 943d f044 e13d 8468 353d b66e 05bd
00000010: 6bb0 97bd 3e5e a2bd afaa 5d3d 0cb0 00bd
00000020: 0657 073d bf47 693d 64eb c2bc 5d57 1c3d
00000030: 7f91 993b c187 96bb dbb3 c33d 3ce2 8dbd

convs.5.weight f4 [4, 4]
0.063105196 0.45153603 0.6205877 0.08114806 0.18919785 0.6566417 1.2019216 0.28402194
1.8632215 0.93911254 0.99071646 0.090540275 0.62980396 0.832848 0.5052707 1.5358167
00000000: 4c3d 813d bb2f e73e d6de 1e3f f430 a63d
00000010: 15bd 413e ac19 283f 91d8 993f 536b 913e
00000020: 0b7e ee3f ae69 703f 989f 7d3f 2e6d b93d
00000030: d53a 213f 8735 553f 6c59 013f a495 c43f

convs.5.bias f4 [4]
0.20715852 0.16958156 -0.45705804 -0.054139037
00000000: 5d21 543e caa6 2d3e 8303 eabe e5c0 5dbd

convs.6.weight f4 [1, 16, 1, 1]
0.42762703 -0.16425696 0.72989374 -0.21638949 -0.014367745 -0.19874221 -0.04303185 0.55665797
1.4045776 -0.2822851 1.1043799 0.17409904 -0.6894816 -1.1518307 0.25997466 -0.038479567
00000000: eef1 da3e fa32 28be 51da 3a3f 3595 5dbe
00000010: b166 6bbc 1483 4bbe 2a42 30bd 2381 0e3f
00000020: 33c9 b33f ac87 90be 525c 8d3f 0547 323e
00000030: de81 30bf 306f 93bf 661b 853e c09c 1dbd
