tools/ML/Data/ML_DET_RES_5_Photo.pt (torch, 9933 bytes, 18 tensors)

conv1.weight f4 [4, 1, 1, 3]
0	0xc013562b	-2.3021343
1	0xc03a7562	-2.9134145
2	0xc025d0ff	-2.590881
3	0xc0135723	-2.3021934
4	0xc03a4c52	-2.9109082
5	0xc025fb65	-2.593469
6	0xc0134ad8	-2.301443
7	0xc03aa371	-2.9162257
8	0xc025b4c9	-2.5891593
9	0xc0134fce	-2.301746
10	0xc039b921	-2.9019244
11	0xc0269102	-2.6026006

conv1.bias f4 [4]
0	0xbdffd8e5	-0.12492541
1	0x3d5da0da	0.054108478
2	0x3ef6b101	0.48181918
3	0xbf0aaea5	-0.54172736

lin1.weight f4 [8, 8]
0	0x3f083f1e	0.5322131
1	0x3eb14b85	0.3462793
2	0x3f09b0f1	0.53785616
3	0x3ed1ec81	0.4100075
4	0x3ef378b3	0.47553024
5	0x3eca9eb3	0.39574203
6	0x3f0116cc	0.5042541
7	0x3eda1723	0.42595777
8	0x3e778954	0.2417348
9	0x3dab9f62	0.08380009
10	0x3e90df84	0.2829553
11	0x3e356cf8	0.1771735
12	0x3e30e52f	0.17274927
13	0x3e4ac9a9	0.1980349
14	0x3e5e66df	0.2171893
15	0x3e3e1ddc	0.18566078
16	0x3ef594bf	0.47965047
17	0x3e922d6f	0.28550288
18	0x3f0dcfea	0.55395377
19	0x3ed32f70	0.4124713
20	0x3ec89cc4	0.39182103
21	0x3eecae08	0.46226525
22	0x3edf1277	0.43568775
23	0x3ecd2f4b	0.40075144
24	0xbee3f445	-0.445223
25	0xbf40f652	-0.75375855
26	0xbec9fac5	-0.39449134
27	0xbf104167	-0.56349796
28	0xbf181ca1	-0.59418684
29	0xbf0a0bc2	-0.5392419
30	0xbf05ed33	-0.5231506
31	0xbf124543	-0.57136935
32	0xbee465f0	-0.44609022
33	0xbf406e3d	-0.7516821
34	0xbec92a12	-0.3928991
35	0xbf0f86e2	-0.5606519
36	0xbf185863	-0.5950987
37	0xbf09b553	-0.53792304
38	0xbf06615b	-0.524923
39	0xbf120c4d	-0.5705002
40	0x3ef65379	0.4811056
41	0x3e95019d	0.29102793
42	0x3f09b007	0.5378422
43	0x3ed73869	0.42035225
44	0x3ec8d18d	0.39222375
45	0x3ee8f31f	0.45497987
46	0x3edca348	0.43093324
47	0x3ecc2eb5	0.39879385
48	0x3e832f2e	0.25621933
49	0x3dc9b4da	0.09848948
50	0x3e8893c5	0.2667524
51	0x3e4992ff	0.19684981
52	0x3e32de5d	0.17467637
53	0x3e4e7821	0.20163013
54	0x3e557b0f	0.20847724
55	0x3e414cb4	0.18876916
56	0x3f08a386	0.53374517
57	0x3eb4139a	0.35171205
58	0x3f057b6e	0.52141464
59	0x3ed5a4ed	0.4172739
60	0x3ef3f770	0.47649717
61	0x3ec7ce79	0.39024714
62	0x3f006c1e	0.50164974
63	0x3ed9e2dc	0.42555892

lin1.bias f4 [8]
0	0xbef09c50	-0.46994257
1	0xbf1b9ae9	-0.6078325
2	0xbddcaeac	-0.107755035
3	0xbf24c113	-0.6435711
4	0xbf5a467b	-0.85263795
5	0xbe897c9d	-0.26852885
6	0xbd9b6d59	-0.07589216
7	0x3d807e5c	0.06274101

conv2.weight f4 [16, 4, 4, 5]
0	0x3f728332	0.9473144
1	0x3f82d112	1.0220053
2	0x3f76b11e	0.9636401
3	0x3f8295b4	1.0201936
4	0x3f72790d	0.9471596
5	0x3f6206c7	0.8829159
6	0x3f8573c8	1.0425959
7	0x3f667103	0.9001619
8	0x3f853609	1.0407115
9	0x3f61b12a	0.88160956
10	0x3f820af6	1.0159595
11	0x3f58b115	0.84645206
12	0x3f6df387	0.9294972
13	0x3f591556	0.8479818
14	0x3f820790	1.0158558
15	0x3f73734c	0.95097804
16	0x3f51d1dd	0.8196085
17	0x3f60e95d	0.87856084
18	0x3f521952	0.82069886
19	0x3f736000	0.9506836
20	0x3f727e24	0.94723725
21	0x3f82d2a3	1.0220531
22	0x3f76aeba	0.9636036
23	0x3f829753	1.020243
24	0x3f727362	0.9470731
25	0x3f620201	0.8828431
26	0x3f857574	1.0426469
27	0x3f666c96	0.9000944
28	0x3f8537a8	1.040761
29	0x3f61ac23	0.88153285
30	0x3f820bcd	1.0159851
31	0x3f58b3d4	0.84649396
32	0x3f6df601	0.929535
33	0x3f591825	0.84802467
34	0x3f82087d	1.015884
35	0x3f7370b1	0.9509383
36	0x3f51cf47	0.81956905
37	0x3f60e690	0.8785181
38	0x3f5216e3	0.8206617
39	0x3f735d6e	0.9506444
40	0x3f7273cd	0.9470795
41	0x3f82dd44	1.0223775
42	0x3f76b1ca	0.96365035
43	0x3f82a0f8	1.0205374
44	0x3f7267e1	0.94689757
45	0x3f61f848	0.8826947
46	0x3f857bd3	1.0428413
47	0x3f6664f6	0.89997804
48	0x3f853d3f	1.0409316
49	0x3f61a15b	0.88136834
50	0x3f82083b	1.0158762
51	0x3f58acb2	0.8463851
52	0x3f6dee41	0.9294167
53	0x3f5910de	0.8479136
54	0x3f8204d9	1.0157729
55	0x3f737246	0.9509624
56	0x3f51d2c4	0.8196223
57	0x3f60e9d2	0.8785678
58	0x3f521a3c	0.8207128
59	0x3f735efd	0.95066816
60	0x3f7288e1	0.9474011
61	0x3f82c9a8	1.0217791
62	0x3f76afed	0.9636219
63	0x3f828ef6	1.0199878
64	0x3f727fb9	0.9472614
65	0x3f621005	0.88305694
66	0x3f856e71	1.0424329
67	0x3f667870	0.90027523
68	0x3f853191	1.0405751
69	0x3f61bab0	0.8817549
70	0x3f8211b2	1.016165
71	0x3f58bfc4	0.8466761
72	0x3f6e02b8	0.929729
73	0x3f5923d2	0.8482028
74	0x3f820e2d	1.0160576
75	0x3f736d41	0.95088583
76	0x3f51c8f5	0.8194726
77	0x3f60e0c8	0.8784299
78	0x3f5210a4	0.8205664
79	0x3f735a08	0.9505925
80	0x3f72835a	0.94731677
81	0x3f82d10a	1.0220044
82	0x3f76b13b	0.9636418
83	0x3f8295ad	1.0201927
84	0x3f72792c	0.94716144
85	0x3f6206da	0.88291705
86	0x3f8573c2	1.0425951
87	0x3f66712d	0.9001644
88	0x3f8535ff	1.0407103
89	0x3f61b149	0.8816114
90	0x3f820ae2	1.0159571
91	0x3f58b138	0.84645414
92	0x3f6df36b	0.9294955
93	0x3f59157a	0.84798396
94	0x3f82077c	1.0158534
95	0x3f737348	0.9509778
96	0x3f51d217	0.81961197
97	0x3f60e960	0.878561
98	0x3f521991	0.8207026
99	0x3f735ff4	0.9506829
100	0x3f727e45	0.9472392
101	0x3f82d297	1.0220517
102	0x3f76aed9	0.96360546
103	0x3f82974f	1.0202426
104	0x3f727385	0.9470752
105	0x3f620214	0.8828442
106	0x3f857575	1.042647
107	0x3f666cda	0.90009844
108	0x3f853797	1.040759
109	0x3f61ac33	0.8815338
110	0x3f820bb7	1.0159825
111	0x3f58b3f2	0.84649575
112	0x3f6df5e8	0.9295335
113	0x3f59184d	0.84802705
114	0x3f82086b	1.0158819
115	0x3f7370a9	0.9509378
116	0x3f51cf93	0.8195736
117	0x3f60e695	0.8785184
118	0x3f521721	0.8206654
119	0x3f735d6a	0.95064414
120	0x3f7273ef	0.9470815
121	0x3f82dd36	1.0223758
122	0x3f76b1ee	0.9636525
123	0x3f82a0ef	1.0205363
124	0x3f726810	0.94690037
125	0x3f61f871	0.88269717
126	0x3f857bc0	1.042839
127	0x3f666523	0.8999807
128	0x3f853d36	1.0409305
129	0x3f61a175	0.8813699
130	0x3f820826	1.0158737
131	0x3f58accf	0.84638685
132	0x3f6dee22	0.92941487
133	0x3f5910f5	0.847915
134	0x3f8204c3	1.0157703
135	0x3f737240	0.95096207
136	0x3f51d302	0.819626
137	0x3f60e9d5	0.878568
138	0x3f521a7c	0.8207166
139	0x3f735ef4	0.9506676
140	0x3f728916	0.94740427
141	0x3f82c99e	1.0217779
142	0x3f76b017	0.9636244
143	0x3f828ee7	1.019986
144	0x3f727fe1	0.9472638
145	0x3f620fff	0.8830566
146	0x3f856e6e	1.0424325
147	0x3f66789a	0.90027773
148	0x3f853180	1.0405731
149	0x3f61badf	0.8817577
150	0x3f8211a0	1.0161629
151	0x3f58bfe4	0.846678
152	0x3f6e028a	0.92972624
153	0x3f5923f0	0.8482046
154	0x3f820e17	1.016055
155	0x3f736d38	0.9508853
156	0x3f51c932	0.81947625
157	0x3f60e0df	0.87843126
158	0x3f5210d0	0.82056904
159	0x3f735a0d	0.9505928
160	0x3f72831c	0.9473131
161	0x3f82d122	1.0220072
162	0x3f76b110	0.96363926
163	0x3f8295c2	1.0201952
164	0x3f7278e9	0.94715744
165	0x3f6206b9	0.8829151
166	0x3f8573cb	1.0425962
167	0x3f6670eb	0.9001605
168	0x3f85360d	1.040712
169	0x3f61b128	0.88160944
170	0x3f820b0a	1.0159619
171	0x3f58b0f9	0.8464504
172	0x3f6df3ab	0.9294993
173	0x3f591537	0.84797996
174	0x3f82079e	1.0158575
175	0x3f737352	0.9509784
176	0x3f51d1b9	0.81960636
177	0x3f60e95a	0.87856066
178	0x3f52192d	0.82069665
179	0x3f736004	0.95068383
180	0x3f727e06	0.94723547
181	0x3f82d2ae	1.0220544
182	0x3f76ae97	0.9636015
183	0x3f82975f	1.0202445
184	0x3f727348	0.94707155
185	0x3f6201fc	0.8828428
186	0x3f85758a	1.0426495
187	0x3f666c7c	0.90009284
188	0x3f8537ac	1.0407615
189	0x3f61ac0b	0.8815314
190	0x3f820bd8	1.0159864
191	0x3f58b3c3	0.84649295
192	0x3f6df619	0.9295364
193	0x3f591812	0.84802353
194	0x3f820887	1.0158852
195	0x3f7370b4	0.95093846
196	0x3f51cf18	0.81956625
197	0x3f60e68f	0.87851804
198	0x3f5216a7	0.82065815
199	0x3f735d6c	0.95064425
200	0x3f7273a8	0.9470773
201	0x3f82dd4a	1.0223782
202	0x3f76b1a7	0.96364826
203	0x3f82a10a	1.0205395
204	0x3f7267c9	0.94689614
205	0x3f61f81b	0.88269204
206	0x3f857bdc	1.0428424
207	0x3f6664db	0.89997643
208	0x3f853d3c	1.0409312
209	0x3f61a149	0.88136727
210	0x3f82084a	1.015878
211	0x3f58ac8d	0.8463829
212	0x3f6dee62	0.9294187
213	0x3f5910c1	0.8479119
214	0x3f8204e8	1.0157747
215	0x3f737243	0.95096225
216	0x3f51d29a	0.8196198
217	0x3f60e9cd	0.8785675
218	0x3f521a0f	0.8207101
219	0x3f735f06	0.9506687
220	0x3f7288c9	0.9473997
221	0x3f82c9b4	1.0217805
222	0x3f76afc1	0.9636193
223	0x3f828efe	1.0199888
224	0x3f727f9c	0.94725966
225	0x3f620ffb	0.88305634
226	0x3f856e7e	1.0424345
227	0x3f667853	0.9002735
228	0x3f853196	1.0405757
229	0x3f61ba8a	0.8817526
230	0x3f8211c2	1.0161669
231	0x3f58bfa0	0.84667397
232	0x3f6e02d3	0.9297306
233	0x3f5923c4	0.848202
234	0x3f820e41	1.01606
235	0x3f736d4b	0.9508864
236	0x3f51c8d5	0.8194707
237	0x3f60e0c6	0.8784298
238	0x3f52107a	0.8205639
239	0x3f735a0b	0.9505927
240	0x3f7282cf	0.9473085
241	0x3f82d13c	1.0220103
242	0x3f76b0ab	0.96363324
243	0x3f8295e2	1.0201991
244	0x3f727879	0.94715077
245	0x3f62067d	0.8829115
246	0x3f8573e2	1.042599
247	0x3f667086	0.9001545
248	0x3f853629	1.0407153
249	0x3f61b0da	0.8816048
250	0x3f820b2e	1.0159662
251	0x3f58b0a1	0.84644514
252	0x3f6df3ea	0.9295031
253	0x3f5914e1	0.84797484
254	0x3f8207ce	1.0158632
255	0x3f737351	0.95097834

conv2.bias f4 [16]
0	0x3d90ae22	0.07064463
1	0x3dd83c68	0.105583966
2	0x3d306644	0.043066278
3	0xbd1319a2	-0.035913117
4	0xbd9facee	-0.077966556
5	0xbda92fbb	-0.08261057
6	0x3d4f3c60	0.050594687
7	0xbd07c5cb	-0.033147614
8	0x3d0013cc	0.03126888
9	0x3d5df2ee	0.054186754
10	0xbcd11de3	-0.025526946
11	0x3d142f5c	0.036177978
12	0x3ad07495	0.0015903885
13	0xbbfff608	-0.0078113116
14	0x3dc6d524	0.09708622
15	0xbd91fd8c	-0.07128438

lin2.weight f4 [4, 4]
0	0xbf31ee59	-0.69504315
1	0xbf58da8d	-0.8470848
2	0xbf577ef3	-0.84178084
3	0xbf2dc6b8	-0.67881346
4	0xbf31f1f2	-0.69509804
5	0xbf58d888	-0.847054
6	0xbf577cab	-0.84174603
7	0xbf2dc25e	-0.67874706
8	0xbf34f40f	-0.70684904
9	0xbf58b73f	-0.8465461
10	0xbf57474f	-0.84093183
11	0xbf333e45	-0.7001689
12	0xbf52a6eb	-0.82285947
13	0xbf7f86fe	-0.99815357
14	0xbf7db578	-0.99105024
15	0xbf4cc780	-0.7999191

lin2.bias f4 [4]
0	0x3e22038c	0.15821666
1	0x3e03a354	0.12855273
2	0xbefed9f3	-0.49775657
3	0xbd246376	-0.040133916

conv3.weight f4 [1, 16, 1, 1]
0	0xbf4ea118	-0.8071456
1	0xbf4e9c4a	-0.8070723
2	0xbf4ea4cd	-0.80720216
3	0xbf4eafa8	-0.8073678
4	0xbf4eb55a	-0.8074547
5	0xbf4eb5f3	-0.8074638
6	0xbf4ea3ef	-0.8071889
7	0xbf4eaf47	-0.807362
8	0xbf4ea4b6	-0.8072008
9	0xbf4ea37e	-0.8071822
10	0xbf4eac8b	-0.8073203
11	0xbf4ea3d5	-0.8071874
12	0xbf4eaa8c	-0.80728984
13	0xbf4eabca	-0.8073088
14	0xbf4e9d8c	-0.8070915
15	0xbf4eb483	-0.8074419

convs.0.weight f4 [4, 1, 1, 3]
0	0xc013562b	-2.3021343
1	0xc03a7562	-2.9134145
2	0xc025d0ff	-2.590881
3	0xc0135723	-2.3021934
4	0xc03a4c52	-2.9109082
5	0xc025fb65	-2.593469
6	0xc0134ad8	-2.301443
7	0xc03aa371	-2.9162257
8	0xc025b4c9	-2.5891593
9	0xc0134fce	-2.301746
10	0xc039b921	-2.9019244
11	0xc0269102	-2.6026006

convs.0.bias f4 [4]
0	0xbdffd8e5	-0.12492541
1	0x3d5da0da	0.054108478
2	0x3ef6b101	0.48181918
3	0xbf0aaea5	-0.54172736

convs.2.weight f4 [8, 8]
0	0x3f083f1e	0.5322131
1	0x3eb14b85	0.3462793
2	0x3f09b0f1	0.53785616
3	0x3ed1ec81	0.4100075
4	0x3ef378b3	0.47553024
5	0x3eca9eb3	0.39574203
6	0x3f0116cc	0.5042541
7	0x3eda1723	0.42595777
8	0x3e778954	0.2417348
9	0x3dab9f62	0.08380009
10	0x3e90df84	0.2829553
11	0x3e356cf8	0.1771735
12	0x3e30e52f	0.17274927
13	0x3e4ac9a9	0.1980349
14	0x3e5e66df	0.2171893
15	0x3e3e1ddc	0.18566078
16	0x3ef594bf	0.47965047
17	0x3e922d6f	0.28550288
18	0x3f0dcfea	0.55395377
19	0x3ed32f70	0.4124713
20	0x3ec89cc4	0.39182103
21	0x3eecae08	0.46226525
22	0x3edf1277	0.43568775
23	0x3ecd2f4b	0.40075144
24	0xbee3f445	-0.445223
25	0xbf40f652	-0.75375855
26	0xbec9fac5	-0.39449134
27	0xbf104167	-0.56349796
28	0xbf181ca1	-0.59418684
29	0xbf0a0bc2	-0.5392419
30	0xbf05ed33	-0.5231506
31	0xbf124543	-0.57136935
32	0xbee465f0	-0.44609022
33	0xbf406e3d	-0.7516821
34	0xbec92a12	-0.3928991
35	0xbf0f86e2	-0.5606519
36	0xbf185863	-0.5950987
37	0xbf09b553	-0.53792304
38	0xbf06615b	-0.524923
39	0xbf120c4d	-0.5705002
40	0x3ef65379	0.4811056
41	0x3e95019d	0.29102793
42	0x3f09b007	0.5378422
43	0x3ed73869	0.42035225
44	0x3ec8d18d	0.39222375
45	0x3ee8f31f	0.45497987
46	0x3edca348	0.43093324
47	0x3ecc2eb5	0.39879385
48	0x3e832f2e	0.25621933
49	0x3dc9b4da	0.09848948
50	0x3e8893c5	0.2667524
51	0x3e4992ff	0.19684981
52	0x3e32de5d	0.17467637
53	0x3e4e7821	0.20163013
54	0x3e557b0f	0.20847724
55	0x3e414cb4	0.18876916
56	0x3f08a386	0.53374517
57	0x3eb4139a	0.35171205
58	0x3f057b6e	0.52141464
59	0x3ed5a4ed	0.4172739
60	0x3ef3f770	0.47649717
61	0x3ec7ce79	0.39024714
62	0x3f006c1e	0.50164974
63	0x3ed9e2dc	0.42555892

convs.2.bias f4 [8]
0	0xbef09c50	-0.46994257
1	0xbf1b9ae9	-0.6078325
2	0xbddcaeac	-0.107755035
3	0xbf24c113	-0.6435711
4	0xbf5a467b	-0.85263795
5	0xbe897c9d	-0.26852885
6	0xbd9b6d59	-0.07589216
7	0x3d807e5c	0.06274101

convs.3.weight f4 [16, 4, 4, 5]
0	0x3f728332	0.9473144
1	0x3f82d112	1.0220053
2	0x3f76b11e	0.9636401
3	0x3f8295b4	1.0201936
4	0x3f72790d	0.9471596
5	0x3f6206c7	0.8829159
6	0x3f8573c8	1.0425959
7	0x3f667103	0.9001619
8	0x3f853609	1.0407115
9	0x3f61b12a	0.88160956
10	0x3f820af6	1.0159595
11	0x3f58b115	0.84645206
12	0x3f6df387	0.9294972
13	0x3f591556	0.8479818
14	0x3f820790	1.0158558
15	0x3f73734c	0.95097804
16	0x3f51d1dd	0.8196085
17	0x3f60e95d	0.87856084
18	0x3f521952	0.82069886
19	0x3f736000	0.9506836
20	0x3f727e24	0.94723725
21	0x3f82d2a3	1.0220531
22	0x3f76aeba	0.9636036
23	0x3f829753	1.020243
24	0x3f727362	0.9470731
25	0x3f620201	0.8828431
26	0x3f857574	1.0426469
27	0x3f666c96	0.9000944
28	0x3f8537a8	1.040761
29	0x3f61ac23	0.88153285
30	0x3f820bcd	1.0159851
31	0x3f58b3d4	0.84649396
32	0x3f6df601	0.929535
33	0x3f591825	0.84802467
34	0x3f82087d	1.015884
35	0x3f7370b1	0.9509383
36	0x3f51cf47	0.81956905
37	0x3f60e690	0.8785181
38	0x3f5216e3	0.8206617
39	0x3f735d6e	0.9506444
40	0x3f7273cd	0.9470795
41	0x3f82dd44	1.0223775
42	0x3f76b1ca	0.96365035
43	0x3f82a0f8	1.0205374
44	0x3f7267e1	0.94689757
45	0x3f61f848	0.8826947
46	0x3f857bd3	1.0428413
47	0x3f6664f6	0.89997804
48	0x3f853d3f	1.0409316
49	0x3f61a15b	0.88136834
50	0x3f82083b	1.0158762
51	0x3f58acb2	0.8463851
52	0x3f6dee41	0.9294167
53	0x3f5910de	0.8479136
54	0x3f8204d9	1.0157729
55	0x3f737246	0.9509624
56	0x3f51d2c4	0.8196223
57	0x3f60e9d2	0.8785678
58	0x3f521a3c	0.8207128
59	0x3f735efd	0.95066816
60	0x3f7288e1	0.9474011
61	0x3f82c9a8	1.0217791
62	0x3f76afed	0.9636219
63	0x3f828ef6	1.0199878
64	0x3f727fb9	0.9472614
65	0x3f621005	0.88305694
66	0x3f856e71	1.0424329
67	0x3f667870	0.90027523
68	0x3f853191	1.0405751
69	0x3f61bab0	0.8817549
70	0x3f8211b2	1.016165
71	0x3f58bfc4	0.8466761
72	0x3f6e02b8	0.929729
73	0x3f5923d2	0.8482028
74	0x3f820e2d	1.0160576
75	0x3f736d41	0.95088583
76	0x3f51c8f5	0.8194726
77	0x3f60e0c8	0.8784299
78	0x3f5210a4	0.8205664
79	0x3f735a08	0.9505925
80	0x3f72835a	0.94731677
81	0x3f82d10a	1.0220044
82	0x3f76b13b	0.9636418
83	0x3f8295ad	1.0201927
84	0x3f72792c	0.94716144
85	0x3f6206da	0.88291705
86	0x3f8573c2	1.0425951
87	0x3f66712d	0.9001644
88	0x3f8535ff	1.0407103
89	0x3f61b149	0.8816114
90	0x3f820ae2	1.0159571
91	0x3f58b138	0.84645414
92	0x3f6df36b	0.9294955
93	0x3f59157a	0.84798396
94	0x3f82077c	1.0158534
95	0x3f737348	0.9509778
96	0x3f51d217	0.81961197
97	0x3f60e960	0.878561
98	0x3f521991	0.8207026
99	0x3f735ff4	0.9506829
100	0x3f727e45	0.9472392
101	0x3f82d297	1.0220517
102	0x3f76aed9	0.96360546
103	0x3f82974f	1.0202426
104	0x3f727385	0.9470752
105	0x3f620214	0.8828442
106	0x3f857575	1.042647
107	0x3f666cda	0.90009844
108	0x3f853797	1.040759
109	0x3f61ac33	0.8815338
110	0x3f820bb7	1.0159825
111	0x3f58b3f2	0.84649575
112	0x3f6df5e8	0.9295335
113	0x3f59184d	0.84802705
114	0x3f82086b	1.0158819
115	0x3f7370a9	0.9509378
116	0x3f51cf93	0.8195736
117	0x3f60e695	0.8785184
118	0x3f521721	0.8206654
119	0x3f735d6a	0.95064414
120	0x3f7273ef	0.9470815
121	0x3f82dd36	1.0223758
122	0x3f76b1ee	0.9636525
123	0x3f82a0ef	1.0205363
124	0x3f726810	0.94690037
125	0x3f61f871	0.88269717
126	0x3f857bc0	1.042839
127	0x3f666523	0.8999807
128	0x3f853d36	1.0409305
129	0x3f61a175	0.8813699
130	0x3f820826	1.0158737
131	0x3f58accf	0.84638685
132	0x3f6dee22	0.92941487
133	0x3f5910f5	0.847915
134	0x3f8204c3	1.0157703
135	0x3f737240	0.95096207
136	0x3f51d302	0.819626
137	0x3f60e9d5	0.878568
138	0x3f521a7c	0.8207166
139	0x3f735ef4	0.9506676
140	0x3f728916	0.94740427
141	0x3f82c99e	1.0217779
142	0x3f76b017	0.9636244
143	0x3f828ee7	1.019986
144	0x3f727fe1	0.9472638
145	0x3f620fff	0.8830566
146	0x3f856e6e	1.0424325
147	0x3f66789a	0.90027773
148	0x3f853180	1.0405731
149	0x3f61badf	0.8817577
150	0x3f8211a0	1.0161629
151	0x3f58bfe4	0.846678
152	0x3f6e028a	0.92972624
153	0x3f5923f0	0.8482046
154	0x3f820e17	1.016055
155	0x3f736d38	0.9508853
156	0x3f51c932	0.81947625
157	0x3f60e0df	0.87843126
158	0x3f5210d0	0.82056904
159	0x3f735a0d	0.9505928
160	0x3f72831c	0.9473131
161	0x3f82d122	1.0220072
162	0x3f76b110	0.96363926
163	0x3f8295c2	1.0201952
164	0x3f7278e9	0.94715744
165	0x3f6206b9	0.8829151
166	0x3f8573cb	1.0425962
167	0x3f6670eb	0.9001605
168	0x3f85360d	1.040712
169	0x3f61b128	0.88160944
170	0x3f820b0a	1.0159619
171	0x3f58b0f9	0.8464504
172	0x3f6df3ab	0.9294993
173	0x3f591537	0.84797996
174	0x3f82079e	1.0158575
175	0x3f737352	0.9509784
176	0x3f51d1b9	0.81960636
177	0x3f60e95a	0.87856066
178	0x3f52192d	0.82069665
179	0x3f736004	0.95068383
180	0x3f727e06	0.94723547
181	0x3f82d2ae	1.0220544
182	0x3f76ae97	0.9636015
183	0x3f82975f	1.0202445
184	0x3f727348	0.94707155
185	0x3f6201fc	0.8828428
186	0x3f85758a	1.0426495
187	0x3f666c7c	0.90009284
188	0x3f8537ac	1.0407615
189	0x3f61ac0b	0.8815314
190	0x3f820bd8	1.0159864
191	0x3f58b3c3	0.84649295
192	0x3f6df619	0.9295364
193	0x3f591812	0.84802353
194	0x3f820887	1.0158852
195	0x3f7370b4	0.95093846
196	0x3f51cf18	0.81956625
197	0x3f60e68f	0.87851804
198	0x3f5216a7	0.82065815
199	0x3f735d6c	0.95064425
200	0x3f7273a8	0.9470773
201	0x3f82dd4a	1.0223782
202	0x3f76b1a7	0.96364826
203	0x3f82a10a	1.0205395
204	0x3f7267c9	0.94689614
205	0x3f61f81b	0.88269204
206	0x3f857bdc	1.0428424
207	0x3f6664db	0.89997643
208	0x3f853d3c	1.0409312
209	0x3f61a149	0.88136727
210	0x3f82084a	1.015878
211	0x3f58ac8d	0.8463829
212	0x3f6dee62	0.9294187
213	0x3f5910c1	0.8479119
214	0x3f8204e8	1.0157747
215	0x3f737243	0.95096225
216	0x3f51d29a	0.8196198
217	0x3f60e9cd	0.8785675
218	0x3f521a0f	0.8207101
219	0x3f735f06	0.9506687
220	0x3f7288c9	0.9473997
221	0x3f82c9b4	1.0217805
222	0x3f76afc1	0.9636193
223	0x3f828efe	1.0199888
224	0x3f727f9c	0.94725966
225	0x3f620ffb	0.88305634
226	0x3f856e7e	1.0424345
227	0x3f667853	0.9002735
228	0x3f853196	1.0405757
229	0x3f61ba8a	0.8817526
230	0x3f8211c2	1.0161669
231	0x3f58bfa0	0.84667397
232	0x3f6e02d3	0.9297306
233	0x3f5923c4	0.848202
234	0x3f820e41	1.01606
235	0x3f736d4b	0.9508864
236	0x3f51c8d5	0.8194707
237	0x3f60e0c6	0.8784298
238	0x3f52107a	0.8205639
239	0x3f735a0b	0.9505927
240	0x3f7282cf	0.9473085
241	0x3f82d13c	1.0220103
242	0x3f76b0ab	0.96363324
243	0x3f8295e2	1.0201991
244	0x3f727879	0.94715077
245	0x3f62067d	0.8829115
246	0x3f8573e2	1.042599
247	0x3f667086	0.9001545
248	0x3f853629	1.0407153
249	0x3f61b0da	0.8816048
250	0x3f820b2e	1.0159662
251	0x3f58b0a1	0.84644514
252	0x3f6df3ea	0.9295031
253	0x3f5914e1	0.84797484
254	0x3f8207ce	1.0158632
255	0x3f737351	0.95097834

convs.3.bias f4 [16]
0	0x3d90ae22	0.07064463
1	0x3dd83c68	0.105583966
2	0x3d306644	0.043066278
3	0xbd1319a2	-0.035913117
4	0xbd9facee	-0.077966556
5	0xbda92fbb	-0.08261057
6	0x3d4f3c60	0.050594687
7	0xbd07c5cb	-0.033147614
8	0x3d0013cc	0.03126888
9	0x3d5df2ee	0.054186754
10	0xbcd11de3	-0.025526946
11	0x3d142f5c	0.036177978
12	0x3ad07495	0.0015903885
13	0xbbfff608	-0.0078113116
14	0x3dc6d524	0.09708622
15	0xbd91fd8c	-0.07128438

convs.5.weight f4 [4, 4]
0	0xbf31ee59	-0.69504315
1	0xbf58da8d	-0.8470848
2	0xbf577ef3	-0.84178084
3	0xbf2dc6b8	-0.67881346
4	0xbf31f1f2	-0.69509804
5	0xbf58d888	-0.847054
6	0xbf577cab	-0.84174603
7	0xbf2dc25e	-0.67874706
8	0xbf34f40f	-0.70684904
9	0xbf58b73f	-0.8465461
10	0xbf57474f	-0.84093183
11	0xbf333e45	-0.7001689
12	0xbf52a6eb	-0.82285947
13	0xbf7f86fe	-0.99815357
14	0xbf7db578	-0.99105024
15	0xbf4cc780	-0.7999191

convs.5.bias f4 [4]
0	0x3e22038c	0.15821666
1	0x3e03a354	0.12855273
2	0xbefed9f3	-0.49775657
3	0xbd246376	-0.040133916

convs.6.weight f4 [1, 16, 1, 1]
0	0xbf4ea118	-0.8071456
1	0xbf4e9c4a	-0.8070723
2	0xbf4ea4cd	-0.80720216
3	0xbf4eafa8	-0.8073678
4	0xbf4eb55a	-0.8074547
5	0xbf4eb5f3	-0.8074638
6	0xbf4ea3ef	-0.8071889
7	0xbf4eaf47	-0.807362
8	0xbf4ea4b6	-0.8072008
9	0xbf4ea37e	-0.8071822
10	0xbf4eac8b	-0.8073203
11	0xbf4ea3d5	-0.8071874
12	0xbf4eaa8c	-0.80728984
13	0xbf4eabca	-0.8073088
14	0xbf4e9d8c	-0.8070915
15	0xbf4eb483	-0.8074419
