tools/ML/Data/ML_DET_RES_5_Photo.pt (torch, 7681 bytes, 5 tensors)

convs.1.weight f4 [4, 1, 1, 3]
295.41995 283.45468 282.14035 0.51339227 -0.08527457 0.57791346 2310.1907 2286.1619
2299.6445 990.6264 984.51 991.169
00000000: c1b5 9343 33ba 8d43 f711 8d43 ad6d 033f
00000010: 6fa4 aebd 23f2 133f 0d63 1045 97e2 0e45
00000020: 50ba 0f45 17a8 7744 a420 7644 d1ca 7744

convs.1.bias f4 [4]
-6.8990846 -0.61661196 -84.60475 -23.118511
00000000: 4dc5 dcc0 48da 1dbf a235 a9c2 b6f2 b8c1

convs.3.weight f4 [16, 4, 4, 5]
-1.1521579 -0.7941087 -0.9422143 -1.0065893 -0.5680598 -114.203415 -113.734535 -109.54693
-110.1459 -114.72318 -0.9975805 -0.94761634 -1.1148086 -0.84078664 -1.0085484 -0.10338744
0.05942279 -0.00701205 0.048935015 -0.029347304 0.03717757 -0.044747446 -0.11284891 -0.07253925
-0.1558793 0.11093512 -0.0355477 0.06852971 0.08165565 0.020479647 -0.10904894 -0.1735806
-0.2128069 -0.08991831 -0.031341955 -0.13993755 -0.33739653 -0.3150101 -0.16025338 -0.18957475
-7.011249 -7.193777 -6.704925 -6.559515 -5.994653 -432.63474 -433.3329 -427.49265
-419.47195 -423.95154 -6.5716486 -6.372327 -6.401379 -6.5013375 -6.532924 -3.2704306
-3.4246316 -3.3790832 -3.2638838 -3.3180203 -0.9017124 -1.2463144 -0.5455344 -0.53733355
-0.7328827 -192.99294 -193.4669 -190.87387 -185.9149 -188.77805 -0.50159657 -0.57497853
-0.60857254 -0.7410277 -0.4797221 -0.056346267 0.093992054 -0.0009652525 -0.03655953 -0.082759134
0.03611642 -0.08104209 -0.11150935 -0.043659363 0.0419503 -0.070701756 0.055534244 0.021944772
0.032230098 -0.105140746 0.011985582 -0.07210583 -0.10470379 0.02750167 0.014916477 -0.0020013554
0.09308275 -0.09222451 -0.059280973 -0.09667681 0.06977198 0.10459263 -0.050744858 -0.07512155
-0.04925906 -0.047885876 0.108641714 -0.01607363 -0.05473711 -0.013097848 -0.020854773 0.03599595
-0.033947118 -0.046892423 0.05249816 -0.078439504 0.08981871 0.02511829 -0.029861093 -0.10225213
-0.11714286 -0.084177524 -0.00422944 -0.10382032 0.08918362 0.0002463741 -0.04661096 -0.10065152
0.014554931 -0.15594362 0.064293616 0.078485735 -0.059515305 0.058235593 -0.033434633 -0.03894012
0.053940237 0.055873305 0.0018163162 -0.11903027 -0.057043657 -0.09773776 0.056085356 -0.06860699
0.06094659 -0.05926082 -0.15506235 -0.044289265 -0.0814495 -0.09781309 0.08433896 0.07723364
-0.012665018 -0.043044478 0.06717758 0.10322823 -0.08192689 0.106915295 0.0047510564 -0.061900314
0.0016555851 0.052973993 -0.094627045 0.025388772 -0.08660876 -6.7739344 -6.8485856 -6.502662
-6.6819434 -6.903923 0.044104528 0.04153737 -0.06843513 -0.05657374 -0.024000792 -0.006686729
-0.09288501 -0.090524785 -0.0042307735 -0.08360504 -0.1030509 0.10178251 -0.014370792 0.065665826
-0.037767082 -0.022332689 -0.062219698 -0.065131254 0.10919441 0.05375524 -0.078624845 0.04200591
0.045856353 0.0068620965 -0.075757205 -0.038940616 -0.078970514 0.04971853 0.09587248 -0.04856466
-0.46630612 -0.336723 -0.2907755 -0.3053961 -0.31813496 -25.854979 -25.96041 -25.584965
-25.114975 -25.359749 -0.41474196 -0.44515333 -0.369454 -0.48043263 -0.3069462 -0.28439692
-0.10496653 -0.1909635 -0.13869157 -0.28178316 0.017924568 -0.08796226 -0.042077843 -0.039653536
-0.12820613 -11.569008 -11.591929 -11.327277 -11.181503 -11.302796 -0.028919721 -0.1468443
-0.08274708 -0.09646782 -0.0010236448 0.06969708 -0.098456144 0.09213062 0.07779905 0.014423907
-2.1097457 -1.4845976 -1.774193 -1.8117656 -0.90873593 -205.86957 -205.0013 -197.48936
-198.47699 -206.6384 -1.809549 -1.6566634 -1.82033 -1.6725879 -1.8013022 0.06872837
00000000: e979 93bf b54a 4bbf f534 71bf ebd7 80bf
00000010: 5e6c 11bf 2668 e4c2 1578 e3c2 0718 dbc2
00000020: b34a dcc2 4572 e5c2 7061 7fbf fc96 72bf
00000030: 0cb2 8ebf cb3d 57bf 1d18 81bf cbbc d3bd
00000040: 5065 733d 57c5 e5bb 1570 483d c269 f0bc
00000050: 8247 183d 1949 37bd 541d e7bd 758f 94bd
00000060: d39e 1fbe f431 e33d 779a 11bd 4e59 8c3d
00000070: 143b a73d efc4 a73c 0d55 dfbd 1dbf 31be
00000080: 0dea 59be 1727 b8bd 6c60 00bd ca4b 0fbe
00000090: 3dbf acbe 0149 a1be 7619 24be e21f 42be
000000a0: 275c e0c0 6c33 e6c0 bf8e d6c0 8ce7 d1c0
000000b0: 33d4 bfc0 3f51 d8c3 9caa d8c3 0fbf d5c3
000000c0: 69bc d1c3 ccf9 d3c3 f24a d2c0 1aea cbc0
000000d0: 19d8 ccc0 f50a d0c0 b70d d1c0 bc4e 51c0
000000e0: 2a2d 5bc0 e642 58c0 79e3 50c0 725a 54c0
000000f0: a0d6 66bf 3b87 9fbf 24a8 0bbf b18e 09bf
00000100: 339e 3bbf 31fe 40c3 8777 41c3 b6df 3ec3
00000110: 37ea 39c3 2ec7 3cc3 a268 00bf cb31 13bf
00000120: 69cb 1bbf feb3 3dbf 239e f5be 58cb 66bd
00000130: e87e c03d 0009 7dba 72bf 15bd 9f7d a9bd
00000140: d0ee 133d 65f9 a5bd 045f e4bd 29d4 32bd
00000150: 14d4 2b3d 15cc 90bd e077 633d 86c5 b33c
00000160: b503 043d 0854 d7bd 2d5f 443c 39ac 93bd
00000170: f16e d6bd 2f4b e13c 3d64 743c 2c29 03bb
00000180: 2ba2 be3d 34e0 bcbd 9bd0 72bd 7efe c5bd
00000190: 9de4 8e3d a934 d63d d7d9 4fbd 54d9 99bd
000001a0: dec3 49bd fb23 44bd 8c7f de3d d8ac 83bc
000001b0: 0534 60bd 5b98 56bc a1d7 aabc 7d70 133d
000001c0: 220c 0bbd 4512 40bd 5008 573d e4a4 a0bd
000001d0: dff2 b73d dfc4 cd3c 409f f4bc 9169 d1bd
000001e0: 99e8 efbd 4465 acbd 1d97 8abb bf9f d4bd
000001f0: e7a5 b63d c62b 8139 22eb 3ebd 6222 cebd
00000200: ce77 6e3c afaf 1fbe 5fac 833d 21bd a03d
00000210: 52c6 73bd 7288 6e3d c1f2 08bd ad7f 1fbd
00000220: 70f0 5c3d 68db 643d 7511 ee3a 24c6 f3bd
00000230: 9ca6 69bd bc2a c8bd c2b9 653d d281 8cbd
00000240: 22a3 793d 79bb 72bd aac8 1ebe a968 35bd
00000250: ffce a6bd 3b52 c8bd e8b9 ac3d ac2c 9e3d
00000260: f080 4fbc 684f 30bd 6694 893d 5269 d33d
00000270: 49c9 a7bd 68f6 da3d c0ae 9b3b 2f8b 7dbd
00000280: 3800 d93a 42fb 583d d3cb c1bd 1dfc cf3c
00000290: ef5f b1bd 12c4 d8c0 9d27 dbc0 cf15 d0c0
000002a0: 7bd2 d5c0 f0ec dcc0 f3a6 343d 1723 2a3d
000002b0: b827 8cbd deb9 67bd 4f9d c4bc 591c dbbb
000002c0: 7f3a bebd 0f65 b9bd 4da2 8abb 1f39 abbd
000002d0: 5a0c d3bd 5973 d03d 7873 6bbc ce7b 863d
000002e0: a8b1 1abd 0bf3 b6bc 15da 7ebd 8963 85bd
000002f0: 52a1 df3d 742e 5c3d 1006 a1bd 640e 2c3d
00000300: dfd3 3b3d 70db e03b 9826 9bbd 3280 1fbd
00000310: 4bbb a1bd a8a5 4b3d ca58 c43d bdeb 46bd
00000320: adbf eebe f566 acbe 87e0 94be e15c 9cbe
00000330: 96e2 a2be ffd6 cec1 ebae cfc1 02ae ccc1
00000340: 78eb c8c1 c4e0 cac1 0f59 d4be 23eb e3be
00000350: 1329 bdbe 44fb f5be 0d28 9dbe 799c 91be
00000360: b1f8 d6bd f08b 43be 2a05 0ebe e245 90be
00000370: 8bd6 923c 8f25 b4bd d159 2cbd bf6b 22bd
00000380: 7848 03be a81a 39c1 8b78 39c1 873c 35c1
00000390: 70e7 32c1 41d8 34c1 0de9 ecbc 5a5e 16be
000003a0: 4d77 a9bd ec90 c5bd d22b 86ba 58bd 8e3d
000003b0: 60a3 c9bd faae bc3d 1c55 9f3d 4052 6c3c
000003c0: 1306 07c0 4b07 bebf c218 e3bf efe7 e7bf
000003d0: eba2 68bf 9cde 4dc3 5500 4dc3 477d 45c3
000003e0: 1c7a 46c3 6ea3 4ec3 4d9f e7bf 8c0d d4bf
000003f0: 9300 e9bf 5c17 d6bf 1291 e6bf 76c1 8c3d

convs.3.bias f4 [16]
-1.9419782 -0.043143477 -0.21643384 -3.3119025 -0.9870591 -2.786314 0.071204774 0.015372235
0.012718051 0.045988344 -0.120638415 -4.624743 0.031226244 -0.4107872 0.08421502 0.007828752
00000000: be92 f8bf 37b7 30bd d5a0 5dbe 36f6 53c0
00000010: e8af 7cbf f852 32c0 cfd3 913d d4db 7b3c
00000020: 5f5f 503c 465e 3c3d 4611 f7bd e5fd 93c0
00000030: 2ece ff3c b352 d2be ed78 ac3d 2a44 003c

convs.5.weight f4 [1, 16, 1, 1]
-1012.8574 -0.22792932 -100.8976 -1842.8083 -457.57288 -1345.9471 0.18138963 0.03978648
0.058797516 -0.057227977 -0.100284055 -2308.047 -0.07990722 -284.1023 -0.15745951 0.13230884
00000000: e036 7dc4 4e66 69be 92cb c9c2 de59 e6c4
00000010: 54c9 e4c3 4f3e a8c4 34be 393e 26f7 223d
00000020: aad5 703d e267 6abd ba61 cdbd c140 10c5
00000030: 66a6 a3bd 180d 8ec3 113d 21be f87b 073e
