tools/ML/Data/ML_DET_RES_5_Photo2_ws.pt (torch, 10579 bytes, 20 tensors)

conv1.weight f4 [4, 1, 1, 3]
000000 9a 71 85 3d 2e 93 92 bb b3 eb 90 bd dc fd 90 be
       0.065158084 -0.0044731116 -0.07076206 -0.2831868
000010 78 ea 95 3d 3b a4 80 3d 96 70 81 3e 46 68 de bc
       0.07320112 0.062813245 0.2528121 -0.02714933
000020 b1 c7 a4 be 3d ba 09 3f 3f 56 8e bd 3f 39 31 bf
       -0.32183602 0.537998 -0.06950044 -0.69227976

conv1.bias f4 [4]
000000 65 ce 00 be 82 58 4e 3d 2a 25 a2 3e f3 91 10 bf
       -0.12578733 0.050377376 0.3166898 -0.564727

lin1.weight f4 [8, 8]
000000 8d 7d 1d 3f 5d 52 5a 3f b7 a6 1b 3f 44 58 8b 3e
       0.615197 0.85281926 0.6080126 0.2721578
000010 2a ea 2c 3f 06 87 8e 3f f2 6f a9 3f 03 dc da 3f
       0.67544806 1.1134956 1.3237288 1.7098392
000020 07 cd f5 3f 9b c4 5f 3f 66 e0 e3 3f 58 e5 bf 3f
       1.9203194 0.8740937 1.7802856 1.4991865
000030 43 92 b1 3f ef dc fc 3f c2 d7 a4 3f bc 01 74 3f
       1.387276 1.9754924 1.2878344 0.95315146
000040 c1 08 17 3f b6 46 7a 3f 5b 3d 9d 3f 02 d0 cf 3f
       0.5899773 0.97764146 1.2284349 1.6235354
000050 88 2b e2 3f 2f 70 57 3f 06 10 e5 3e 89 d9 4a 3f
       1.7669535 0.84155554 0.44738787 0.7923818
000060 87 1a 44 3f d2 e8 eb 3f 9c 5e 48 3f db 9d 04 40
       0.7660298 1.8430426 0.7826936 2.0721347
000070 b8 2b 60 3e c6 09 8b 3f c0 5b 25 3f 82 ad ac 3f
       0.21891677 1.0862358 0.64593124 1.349045
000080 80 36 5d 3f 5f 94 bd 3f c5 53 2b 3f 0d 58 ae 3f
       0.86411285 1.4810904 0.669247 1.3620621
000090 28 f2 21 3f eb a6 ed 3e c7 9a 0c 3f 5d 2e 84 3f
       0.63260126 0.4641641 0.5492367 1.0326649
0000a0 e8 7b a1 3f c0 b0 80 3f 9b e0 6d 3f 40 16 8c 3f
       1.2615938 1.005394 0.92920846 1.094429
0000b0 71 73 9d 3f 42 7f 95 3f 41 48 8e 3f 6f aa 6c 3f
       1.2300855 1.1679461 1.11158 0.9244756
0000c0 d0 b9 5b 3f e1 56 49 bd 30 65 9d 3f 87 b6 a9 3e
       0.858304 -0.04915512 1.2296505 0.3314707
0000d0 49 d0 9a 3f 22 1f 24 3f 1c 3c c4 bc 6c 20 9d 3f
       1.2094814 0.64110005 -0.023954444 1.2275519
0000e0 0d 9d 16 40 72 91 ad 3f a2 bc 48 3f 84 87 f9 3f
       2.3533356 1.3560011 0.7841283 1.9494481
0000f0 37 c9 8c 3f fb 44 73 3f 13 e8 0b 3f 1c ce 64 3f
       1.0998906 0.9502713 0.5465099 0.89377

lin1.bias f4 [8]
000000 09 1a 90 be 2e 0e 92 be dd 57 b0 3e 43 fe ca 3a
       -0.28144863 -0.28526443 0.34442034 0.0015487153
000010 05 bb 5a be 48 f9 36 3e b8 ca 77 3e 82 b9 81 3e
       -0.21360405 0.17868531 0.24198425 0.25336844

conv2.weight f4 [16, 4, 4, 5]
000000 3e a3 85 be 8d 07 8d bf 17 60 4f 3f 3a 4e a3 bf
       -0.26101106 -1.1017929 0.81005996 -1.2758248
000010 90 79 42 bf 3b 3b 19 bf 7c c2 6c 3f 93 bf a2 be
       -0.7596674 -0.59856004 0.9248426 -0.31786785
000020 8a 87 11 bf 42 ff 60 3f 61 8b 26 3e 8a 9f a6 bf
       -0.5684744 0.8788949 0.16264106 -1.3017437
000030 ab 06 00 bd 49 13 be 3d cd 08 29 bf 93 12 80 bf
       -0.03125636 0.09281022 -0.66029054 -1.0005668
000040 ba 78 9e 3f ce 0d 8b 3f 8b 1d b5 3e bd 3f 54 be
       1.2380593 1.0863588 0.35374102 -0.20727439
000050 3e 8c 36 bf 71 0b 93 bf 1f 94 0d 40 c7 8f 4e bf
       -0.7130774 -1.1487867 2.2121656 -0.80688137
000060 41 33 29 3e aa 2f 2c 3e 9c 6f d2 be 6a 4c 5a 3e
       0.16523458 0.16815057 -0.41100776 0.21318212
000070 a2 8b 92 3e 43 99 dc be 68 2d 39 bf 36 31 d0 be
       0.28622156 -0.4308568 -0.7233491 -0.40662545
000080 2a a9 9b bf 44 c1 cd be e5 91 90 3f 8f 59 d2 3e
       -1.2161 -0.40186512 1.1294523 0.41083953
000090 7a 47 f2 bf 68 18 85 3f bd 1c 8c bf 27 60 ab bf
       -1.8928063 1.0398073 -1.094627 -1.3388718
0000a0 92 cc 8f 3f 84 8e 95 bf 61 2c 3d 3f ba e7 af bd
       1.1234305 -1.1684117 0.7389584 -0.0858912
0000b0 7b 99 8e 3e ae 6b 60 bf 4b e6 13 3f 08 56 7e 3f
       0.2785147 -0.87664306 0.57773274 0.99350023
0000c0 b8 b9 ff 3f fb 30 ac 3f 5b 64 dc bf 0c 23 38 3f
       1.9978552 1.3452448 -1.7218126 0.7192848
0000d0 35 26 02 3f c9 68 46 3f dc 57 09 c0 ad 1b e4 be
       0.5083955 0.7750364 -2.1459875 -0.44552365
0000e0 d5 66 0f 3f 2b e5 67 bf 3e d0 51 be 0e ca 62 bf
       0.56016284 -0.9058406 -0.20489594 -0.8858956
0000f0 fc b5 6b bf ec 0b 42 bf 41 f4 c1 3e 57 1d c6 3a
       -0.9207456 -0.7579944 0.37881663 0.0015114945
000100 ce 5e c9 3f b3 1b aa 3e 63 75 c3 bc fd 58 78 bf
       1.5732057 0.33224258 -0.023859685 -0.97010785
000110 59 89 50 be be b8 00 be e4 da 05 40 28 8d 81 bf
       -0.20364894 -0.12570474 2.091485 -1.0121202
000120 1a a3 71 3f ea 37 e0 be 2a 02 e2 bd e6 3d e7 3f
       0.943895 -0.4379266 -0.11035569 1.8065765
000130 f4 b1 06 c0 43 d3 b6 bb 87 7c 0e c0 80 4f 47 be
       -2.1046114 -0.0055793836 -2.2263505 -0.1946392
000140 55 b7 a7 bf 09 7d b6 bf 18 e6 d9 bd 8f c6 e7 bf
       -1.3102823 -1.4256908 -0.1063959 -1.810747
000150 a6 ae 37 3e bc 46 b4 be 68 2d c1 be 6d cd 5c 3f
       0.17937717 -0.35210216 -0.37729955 0.86250955
000160 5a 7b e7 3d 10 0a 66 3f 95 f8 8d bf 40 1a bc 3f
       0.11302824 0.89859104 -1.1091486 1.4695511
000170 51 3e 70 3d f1 c0 32 3e f8 41 80 3f 8e b1 b4 3e
       0.05865318 0.17456414 1.0020132 0.35291713
000180 3e eb 4f bf 4c e3 89 3e ad 7e 8e 3e 5c bb 99 3f
       -0.81218326 0.26931226 0.2783102 1.2010303
000190 50 30 84 3f a7 8d 22 3d 55 47 f2 3d e8 7e 24 bf
       1.0327244 0.03968587 0.11830012 -0.64256144
0001a0 64 f4 5b 3f 62 72 3a 40 e2 36 8e be d9 a8 0f c0
       0.85919785 2.9132314 -0.27776247 -2.2446806
0001b0 3e 30 ea 3c 2b 0f 9d 3e 89 e3 2c bf 17 33 fb 3e
       0.028587457 0.30675635 -0.6753469 0.49062416
0001c0 5c b4 75 bd 06 fd 74 be 62 ce bd 3f cf 74 be 3e
       -0.059986457 -0.23924646 1.4828608 0.37198493
0001d0 fe 66 3d 3f 3f 15 83 bf 98 65 51 bf 21 6d d6 3f
       0.7398528 -1.0240859 -0.81795645 1.6752053
0001e0 f2 df eb be 23 e2 96 bf 0e 60 9a bf d6 85 30 3f
       -0.46069294 -1.1787761 -1.2060564 0.6895422
0001f0 9b be e7 3f 69 39 25 c0 bf d8 ca bf 1e 9d d9 3f
       1.8105043 -2.581629 -1.5847396 1.7001073
000200 17 f1 a4 bf 95 b5 af 3f 94 80 18 be 0a 63 ab be
       -1.2886075 1.372729 -0.14892799 -0.33473998
000210 02 ea db 3f 6e ee 50 3f 29 61 f9 bf 36 68 a4 bf
       1.7180789 0.81613815 -1.9482776 -1.2844303
000220 0c a4 cc 3e b9 29 d8 bf c6 8c 0e 3f 16 cf 47 bf
       0.39968908 -1.6887733 0.55683553 -0.78050363
000230 0b c7 56 be e9 09 6f bf 27 26 8c bf 93 6d f6 be
       -0.20974366 -0.93374497 -1.0949143 -0.48130473
000240 0c 95 b3 3e 90 1a e4 3f 63 71 47 bf 31 72 ce 3c
       0.3507465 1.7820606 -0.7790739 0.025200935
000250 f5 c1 91 3f b1 4f e5 be 88 97 8e 3f 1a 36 95 3e
       1.1387316 -0.44787362 1.1139994 0.2914284
000260 51 ba 05 c0 c3 43 92 be 74 fc 4f bd 62 07 ad be
       -2.0894969 -0.28567323 -0.050777867 -0.33794695
000270 ca e6 2c 3f 89 c6 be 3f b1 c5 a8 3e dd 5c d0 3e
       0.67539656 1.4904338 0.32963327 0.4069585
000280 7e 44 00 3f e9 3b 69 3f 71 42 90 3e 19 c7 82 3e
       0.5010451 0.9110704 0.2817569 0.25542524
000290 f0 b3 02 bf dd 87 81 3f 97 8f 35 bf 09 a8 8b bf
       -0.5105581 1.0119587 -0.70922226 -1.0910655
0002a0 c3 6e a8 3f e8 d4 31 3d 38 98 91 3d 2f 25 7a bf
       1.3158802 0.043415934 0.071091115 -0.9771299
0002b0 03 4e 0b bf 3c ae b9 3f 76 bd 8f be 98 17 ab 3f
       -0.5441591 1.4506297 -0.28074235 1.3366575
0002c0 a1 ed c8 3f 0f 6a c0 bf 2a 13 46 3f 46 ed 23 bf
       1.5697519 -1.5032367 0.7737299 -0.64033926
0002d0 0a 06 b4 3d aa bb d8 3b d7 69 21 c0 fb bd 94 3e
       0.08790214 0.006614168 -2.522085 0.29051194
0002e0 30 fe f1 3d 35 3d 5c 3e 62 b6 4c be c3 64 be 3e
       0.118160605 0.21507724 -0.19991449 0.3718625
0002f0 4b 59 3c bf 17 f9 98 3f 86 e7 99 bf 51 e6 eb 3e
       -0.7357375 1.1951016 -1.202378 0.46074155
000300 96 66 a1 3f 5d 68 f9 3f 10 1b 6f 3e 2d e9 04 bf
       1.2609432 1.9484974 0.23350167 -0.519183
000310 be f4 64 3f 8c 0a 44 3d 54 f6 c5 bf 2e 53 c7 3e
       0.89435947 0.04786162 -1.5465798 0.3893065
000320 38 f6 a9 3f 8f ae 3b 40 25 3b 80 3f c2 f5 6a be
       1.3278265 2.9325292 1.001805 -0.22945312
000330 09 4f 88 3f 20 b5 6b bf 03 c1 e0 bd 55 3c 43 bf
       1.064912 -0.9207325 -0.10974314 -0.76263934
000340 17 6f e3 bf e1 29 80 bf b5 46 ff 3e 0f 2c b0 3d
       -1.7768277 -1.001278 0.49858633 0.086021535
000350 9d e9 f9 3e 35 f3 aa bf 15 af 9d 3f a6 ef 32 3f
       0.48811045 -1.3355471 1.2319056 0.69896924
000360 d2 7c 81 bd 3b 7e 1e be dd 48 13 3e 76 77 95 bf
       -0.06322636 -0.1547784 0.14383264 -1.1677082
000370 09 44 32 bf 48 2d ee 3e 29 b9 ec bd da f8 d0 3d
       -0.69635063 0.46518922 -0.11558754 0.10203715
000380 13 10 d7 be 56 63 27 be 11 4e a5 bd d8 c0 a1 3f
       -0.4200445 -0.16346487 -0.080715306 1.2636976
000390 30 b7 ac 3f 3f 66 8c 3f 2f ca e6 bf 9d a9 ed 3f
       1.3493404 1.0968703 -1.8030452 1.8567387
0003a0 e5 b1 62 be eb 31 42 be 2b 36 cf be 76 bb 57 bf
       -0.22138174 -0.18964355 -0.40471014 -0.8427042
0003b0 58 41 73 bf cf 41 1f 3f c9 3a 93 3f c0 ef 1d bd
       -0.9502158 0.6220979 1.1502315 -0.03855872
0003c0 f7 f0 f2 bf d4 3e 26 c0 b9 e5 ae 3e 7b 5d 98 bf
       -1.8979787 -2.5975847 0.3415964 -1.1903528
0003d0 4c d4 7e 3f 2e 1f a5 3f 92 e4 60 3e f8 9c 9f bd
       0.9954269 1.290014 0.21962193 -0.07793611
0003e0 97 1f 28 40 47 05 b4 bf ec 6f 13 be 2a 3b df 3e
       2.626928 -1.406411 -0.14398164 0.43599826
0003f0 bc b9 00 be fc c3 da be fa 9c 49 3f 55 c4 51 3f
       -0.12570852 -0.4272765 0.7875515 0.81940204

conv2.bias f4 [16]
000000 7f c5 95 3d 04 d1 de 3d 99 c7 38 3d aa 91 07 bd
       0.0731306 0.1087971 0.045112226 -0.0330979
000010 1b 82 99 bd b2 6b a3 bd 96 6f 5a 3d f9 de fb bc
       -0.07495519 -0.079795256 0.053329073 -0.03074597
000020 a3 68 09 3d 65 8e 69 3d 47 b2 be bc 9f 5e 1e 3d
       0.033547055 0.057020564 -0.023278369 0.038664456
000030 c6 5d 93 3b 7e 8c a5 bb 80 2e cb 3d e8 e9 8c bd
       0.0044972626 -0.0050521484 0.099209785 -0.068805516

lin2.weight f4 [4, 4]
000000 d8 c5 4b 3d b6 a7 e2 3e 9e 43 1f 3f 01 ee 9a 3d
       0.049749225 0.44268578 0.6221255 0.07564927
000010 41 6e 56 3e 73 47 2d 3f 46 fb 99 3f ad 8c 94 3e
       0.20940496 0.6768715 1.2029808 0.29013577
000020 40 e8 f0 3f d9 6c 74 3f d0 02 80 3f 5e 3c be 3d
       1.8820877 0.9547859 1.0000858 0.09288858
000030 27 36 26 3f e2 a0 5a 3f 1d e0 02 3f f8 eb c2 3f
       0.6492638 0.8540174 0.5112322 1.5228262

lin2.bias f4 [4]
000000 8a f6 55 3e d0 8a 32 3e 84 90 e5 be 49 b1 23 bd
       0.20894828 0.17435765 -0.4483682 -0.039963994

conv3.weight f4 [1, 16, 1, 1]
000000 34 d6 da 3e 6f 33 28 be 71 3a 3b 3f 49 5b 5d be
       0.4274155 -0.1642587 0.7313605 -0.21616854
000010 bf f8 48 bc cd 2f 4c be 57 c0 2c bd db 07 0f 3f
       -0.012266337 -0.1994011 -0.042175617 0.5587136
000020 0e ba b3 3f 30 bd 8f be f1 4c 8d 3f 54 38 32 3e
       1.4041154 -0.28074026 1.1039106 0.174043
000030 4d 93 30 bf dd 9a 93 bf 92 80 86 3e 83 26 1e bd
       -0.68974763 -1.1531636 0.26269966 -0.038610946

lin3.weight f4 [4, 4]
000000 00 00 20 41 69 b6 0c 39 32 76 77 b9 49 13 73 39
       10.0 0.00013419394 -0.00023599787 0.0002318147
000010 2a f6 f5 38 78 36 2a 40 ea 80 43 39 43 f4 53 b9
       0.00011728362 2.6595745 0.00018644673 -0.00020213523
000020 56 54 be b7 69 ca 36 b8 00 00 80 3f 3a 7c 25 b8
       -2.2689037e-05 -4.358069e-05 1.0 -3.945476e-05
000030 94 22 a6 b6 be 53 96 b8 a6 4f f2 37 b0 1a 77 3f
       -4.951211e-06 -7.1681556e-05 2.8885737e-05 0.96525097

lin3.bias f4 [4]
000000 46 b6 86 c1 48 e1 6e 41 27 31 8e 41 af 7d a8 41
       -16.839 14.93 17.774 21.061369

convs.0.weight f4 [4, 1, 1, 3]
000000 9a 71 85 3d 2e 93 92 bb b3 eb 90 bd dc fd 90 be
       0.065158084 -0.0044731116 -0.07076206 -0.2831868
000010 78 ea 95 3d 3b a4 80 3d 96 70 81 3e 46 68 de bc
       0.07320112 0.062813245 0.2528121 -0.02714933
000020 b1 c7 a4 be 3d ba 09 3f 3f 56 8e bd 3f 39 31 bf
       -0.32183602 0.537998 -0.06950044 -0.69227976

convs.0.bias f4 [4]
000000 65 ce 00 be 82 58 4e 3d 2a 25 a2 3e f3 91 10 bf
       -0.12578733 0.050377376 0.3166898 -0.564727

convs.2.weight f4 [8, 8]
000000 8d 7d 1d 3f 5d 52 5a 3f b7 a6 1b 3f 44 58 8b 3e
       0.615197 0.85281926 0.6080126 0.2721578
000010 2a ea 2c 3f 06 87 8e 3f f2 6f a9 3f 03 dc da 3f
       0.67544806 1.1134956 1.3237288 1.7098392
000020 07 cd f5 3f 9b c4 5f 3f 66 e0 e3 3f 58 e5 bf 3f
       1.9203194 0.8740937 1.7802856 1.4991865
000030 43 92 b1 3f ef dc fc 3f c2 d7 a4 3f bc 01 74 3f
       1.387276 1.9754924 1.2878344 0.95315146
000040 c1 08 17 3f b6 46 7a 3f 5b 3d 9d 3f 02 d0 cf 3f
       0.5899773 0.97764146 1.2284349 1.6235354
000050 88 2b e2 3f 2f 70 57 3f 06 10 e5 3e 89 d9 4a 3f
       1.7669535 0.84155554 0.44738787 0.7923818
000060 87 1a 44 3f d2 e8 eb 3f 9c 5e 48 3f db 9d 04 40
       0.7660298 1.8430426 0.7826936 2.0721347
000070 b8 2b 60 3e c6 09 8b 3f c0 5b 25 3f 82 ad ac 3f
       0.21891677 1.0862358 0.64593124 1.349045
000080 80 36 5d 3f 5f 94 bd 3f c5 53 2b 3f 0d 58 ae 3f
       0.86411285 1.4810904 0.669247 1.3620621
000090 28 f2 21 3f eb a6 ed 3e c7 9a 0c 3f 5d 2e 84 3f
       0.63260126 0.4641641 0.5492367 1.0326649
0000a0 e8 7b a1 3f c0 b0 80 3f 9b e0 6d 3f 40 16 8c 3f
       1.2615938 1.005394 0.92920846 1.094429
0000b0 71 73 9d 3f 42 7f 95 3f 41 48 8e 3f 6f aa 6c 3f
       1.2300855 1.1679461 1.11158 0.9244756
0000c0 d0 b9 5b 3f e1 56 49 bd 30 65 9d 3f 87 b6 a9 3e
       0.858304 -0.04915512 1.2296505 0.3314707
0000d0 49 d0 9a 3f 22 1f 24 3f 1c 3c c4 bc 6c 20 9d 3f
       1.2094814 0.64110005 -0.023954444 1.2275519
0000e0 0d 9d 16 40 72 91 ad 3f a2 bc 48 3f 84 87 f9 3f
       2.3533356 1.3560011 0.7841283 1.9494481
0000f0 37 c9 8c 3f fb 44 73 3f 13 e8 0b 3f 1c ce 64 3f
       1.0998906 0.9502713 0.5465099 0.89377

convs.2.bias f4 [8]
000000 09 1a 90 be 2e 0e 92 be dd 57 b0 3e 43 fe ca 3a
       -0.28144863 -0.28526443 0.34442034 0.0015487153
000010 05 bb 5a be 48 f9 36 3e b8 ca 77 3e 82 b9 81 3e
       -0.21360405 0.17868531 0.24198425 0.25336844

convs.3.weight f4 [16, 4, 4, 5]
000000 3e a3 85 be 8d 07 8d bf 17 60 4f 3f 3a 4e a3 bf
       -0.26101106 -1.1017929 0.81005996 -1.2758248
000010 90 79 42 bf 3b 3b 19 bf 7c c2 6c 3f 93 bf a2 be
       -0.7596674 -0.59856004 0.9248426 -0.31786785
000020 8a 87 11 bf 42 ff 60 3f 61 8b 26 3e 8a 9f a6 bf
       -0.5684744 0.8788949 0.16264106 -1.3017437
000030 ab 06 00 bd 49 13 be 3d cd 08 29 bf 93 12 80 bf
       -0.03125636 0.09281022 -0.66029054 -1.0005668
000040 ba 78 9e 3f ce 0d 8b 3f 8b 1d b5 3e bd 3f 54 be
       1.2380593 1.0863588 0.35374102 -0.20727439
000050 3e 8c 36 bf 71 0b 93 bf 1f 94 0d 40 c7 8f 4e bf
       -0.7130774 -1.1487867 2.2121656 -0.80688137
000060 41 33 29 3e aa 2f 2c 3e 9c 6f d2 be 6a 4c 5a 3e
       0.16523458 0.16815057 -0.41100776 0.21318212
000070 a2 8b 92 3e 43 99 dc be 68 2d 39 bf 36 31 d0 be
       0.28622156 -0.4308568 -0.7233491 -0.40662545
000080 2a a9 9b bf 44 c1 cd be e5 91 90 3f 8f 59 d2 3e
       -1.2161 -0.40186512 1.1294523 0.41083953
000090 7a 47 f2 bf 68 18 85 3f bd 1c 8c bf 27 60 ab bf
       -1.8928063 1.0398073 -1.094627 -1.3388718
0000a0 92 cc 8f 3f 84 8e 95 bf 61 2c 3d 3f ba e7 af bd
       1.1234305 -1.1684117 0.7389584 -0.0858912
0000b0 7b 99 8e 3e ae 6b 60 bf 4b e6 13 3f 08 56 7e 3f
       0.2785147 -0.87664306 0.57773274 0.99350023
0000c0 b8 b9 ff 3f fb 30 ac 3f 5b 64 dc bf 0c 23 38 3f
       1.9978552 1.3452448 -1.7218126 0.7192848
0000d0 35 26 02 3f c9 68 46 3f dc 57 09 c0 ad 1b e4 be
       0.5083955 0.7750364 -2.1459875 -0.44552365
0000e0 d5 66 0f 3f 2b e5 67 bf 3e d0 51 be 0e ca 62 bf
       0.56016284 -0.9058406 -0.20489594 -0.8858956
0000f0 fc b5 6b bf ec 0b 42 bf 41 f4 c1 3e 57 1d c6 3a
       -0.9207456 -0.7579944 0.37881663 0.0015114945
000100 ce 5e c9 3f b3 1b aa 3e 63 75 c3 bc fd 58 78 bf
       1.5732057 0.33224258 -0.023859685 -0.97010785
000110 59 89 50 be be b8 00 be e4 da 05 40 28 8d 81 bf
       -0.20364894 -0.12570474 2.091485 -1.0121202
000120 1a a3 71 3f ea 37 e0 be 2a 02 e2 bd e6 3d e7 3f
       0.943895 -0.4379266 -0.11035569 1.8065765
000130 f4 b1 06 c0 43 d3 b6 bb 87 7c 0e c0 80 4f 47 be
       -2.1046114 -0.0055793836 -2.2263505 -0.1946392
000140 55 b7 a7 bf 09 7d b6 bf 18 e6 d9 bd 8f c6 e7 bf
       -1.3102823 -1.4256908 -0.1063959 -1.810747
000150 a6 ae 37 3e bc 46 b4 be 68 2d c1 be 6d cd 5c 3f
       0.17937717 -0.35210216 -0.37729955 0.86250955
000160 5a 7b e7 3d 10 0a 66 3f 95 f8 8d bf 40 1a bc 3f
       0.11302824 0.89859104 -1.1091486 1.4695511
000170 51 3e 70 3d f1 c0 32 3e f8 41 80 3f 8e b1 b4 3e
       0.05865318 0.17456414 1.0020132 0.35291713
000180 3e eb 4f bf 4c e3 89 3e ad 7e 8e 3e 5c bb 99 3f
       -0.81218326 0.26931226 0.2783102 1.2010303
000190 50 30 84 3f a7 8d 22 3d 55 47 f2 3d e8 7e 24 bf
       1.0327244 0.03968587 0.11830012 -0.64256144
0001a0 64 f4 5b 3f 62 72 3a 40 e2 36 8e be d9 a8 0f c0
       0.85919785 2.9132314 -0.27776247 -2.2446806
0001b0 3e 30 ea 3c 2b 0f 9d 3e 89 e3 2c bf 17 33 fb 3e
       0.028587457 0.30675635 -0.6753469 0.49062416
0001c0 5c b4 75 bd 06 fd 74 be 62 ce bd 3f cf 74 be 3e
       -0.059986457 -0.23924646 1.4828608 0.37198493
0001d0 fe 66 3d 3f 3f 15 83 bf 98 65 51 bf 21 6d d6 3f
       0.7398528 -1.0240859 -0.81795645 1.6752053
0001e0 f2 df eb be 23 e2 96 bf 0e 60 9a bf d6 85 30 3f
       -0.46069294 -1.1787761 -1.2060564 0.6895422
0001f0 9b be e7 3f 69 39 25 c0 bf d8 ca bf 1e 9d d9 3f
       1.8105043 -2.581629 -1.5847396 1.7001073
000200 17 f1 a4 bf 95 b5 af 3f 94 80 18 be 0a 63 ab be
       -1.2886075 1.372729 -0.14892799 -0.33473998
000210 02 ea db 3f 6e ee 50 3f 29 61 f9 bf 36 68 a4 bf
       1.7180789 0.81613815 -1.9482776 -1.2844303
000220 0c a4 cc 3e b9 29 d8 bf c6 8c 0e 3f 16 cf 47 bf
       0.39968908 -1.6887733 0.55683553 -0.78050363
000230 0b c7 56 be e9 09 6f bf 27 26 8c bf 93 6d f6 be
       -0.20974366 -0.93374497 -1.0949143 -0.48130473
000240 0c 95 b3 3e 90 1a e4 3f 63 71 47 bf 31 72 ce 3c
       0.3507465 1.7820606 -0.7790739 0.025200935
000250 f5 c1 91 3f b1 4f e5 be 88 97 8e 3f 1a 36 95 3e
       1.1387316 -0.44787362 1.1139994 0.2914284
000260 51 ba 05 c0 c3 43 92 be 74 fc 4f bd 62 07 ad be
       -2.0894969 -0.28567323 -0.050777867 -0.33794695
000270 ca e6 2c 3f 89 c6 be 3f b1 c5 a8 3e dd 5c d0 3e
       0.67539656 1.4904338 0.32963327 0.4069585
000280 7e 44 00 3f e9 3b 69 3f 71 42 90 3e 19 c7 82 3e
       0.5010451 0.9110704 0.2817569 0.25542524
000290 f0 b3 02 bf dd 87 81 3f 97 8f 35 bf 09 a8 8b bf
       -0.5105581 1.0119587 -0.70922226 -1.0910655
0002a0 c3 6e a8 3f e8 d4 31 3d 38 98 91 3d 2f 25 7a bf
       1.3158802 0.043415934 0.071091115 -0.9771299
0002b0 03 4e 0b bf 3c ae b9 3f 76 bd 8f be 98 17 ab 3f
       -0.5441591 1.4506297 -0.28074235 1.3366575
0002c0 a1 ed c8 3f 0f 6a c0 bf 2a 13 46 3f 46 ed 23 bf
       1.5697519 -1.5032367 0.7737299 -0.64033926
0002d0 0a 06 b4 3d aa bb d8 3b d7 69 21 c0 fb bd 94 3e
       0.08790214 0.006614168 -2.522085 0.29051194
0002e0 30 fe f1 3d 35 3d 5c 3e 62 b6 4c be c3 64 be 3e
       0.118160605 0.21507724 -0.19991449 0.3718625
0002f0 4b 59 3c bf 17 f9 98 3f 86 e7 99 bf 51 e6 eb 3e
       -0.7357375 1.1951016 -1.202378 0.46074155
000300 96 66 a1 3f 5d 68 f9 3f 10 1b 6f 3e 2d e9 04 bf
       1.2609432 1.9484974 0.23350167 -0.519183
000310 be f4 64 3f 8c 0a 44 3d 54 f6 c5 bf 2e 53 c7 3e
       0.89435947 0.04786162 -1.5465798 0.3893065
000320 38 f6 a9 3f 8f ae 3b 40 25 3b 80 3f c2 f5 6a be
       1.3278265 2.9325292 1.001805 -0.22945312
000330 09 4f 88 3f 20 b5 6b bf 03 c1 e0 bd 55 3c 43 bf
       1.064912 -0.9207325 -0.10974314 -0.76263934
000340 17 6f e3 bf e1 29 80 bf b5 46 ff 3e 0f 2c b0 3d
       -1.7768277 -1.001278 0.49858633 0.086021535
000350 9d e9 f9 3e 35 f3 aa bf 15 af 9d 3f a6 ef 32 3f
       0.48811045 -1.3355471 1.2319056 0.69896924
000360 d2 7c 81 bd 3b 7e 1e be dd 48 13 3e 76 77 95 bf
       -0.06322636 -0.1547784 0.14383264 -1.1677082
000370 09 44 32 bf 48 2d ee 3e 29 b9 ec bd da f8 d0 3d
       -0.69635063 0.46518922 -0.11558754 0.10203715
000380 13 10 d7 be 56 63 27 be 11 4e a5 bd d8 c0 a1 3f
       -0.4200445 -0.16346487 -0.080715306 1.2636976
000390 30 b7 ac 3f 3f 66 8c 3f 2f ca e6 bf 9d a9 ed 3f
       1.3493404 1.0968703 -1.8030452 1.8567387
0003a0 e5 b1 62 be eb 31 42 be 2b 36 cf be 76 bb 57 bf
       -0.22138174 -0.18964355 -0.40471014 -0.8427042
0003b0 58 41 73 bf cf 41 1f 3f c9 3a 93 3f c0 ef 1d bd
       -0.9502158 0.6220979 1.1502315 -0.03855872
0003c0 f7 f0 f2 bf d4 3e 26 c0 b9 e5 ae 3e 7b 5d 98 bf
       -1.8979787 -2.5975847 0.3415964 -1.1903528
0003d0 4c d4 7e 3f 2e 1f a5 3f 92 e4 60 3e f8 9c 9f bd
       0.9954269 1.290014 0.21962193 -0.07793611
0003e0 97 1f 28 40 47 05 b4 bf ec 6f 13 be 2a 3b df 3e
       2.626928 -1.406411 -0.14398164 0.43599826
0003f0 bc b9 00 be fc c3 da be fa 9c 49 3f 55 c4 51 3f
       -0.12570852 -0.4272765 0.7875515 0.81940204

convs.3.bias f4 [16]
000000 7f c5 95 3d 04 d1 de 3d 99 c7 38 3d aa 91 07 bd
       0.0731306 0.1087971 0.045112226 -0.0330979
000010 1b 82 99 bd b2 6b a3 bd 96 6f 5a 3d f9 de fb bc
       -0.07495519 -0.079795256 0.053329073 -0.03074597
000020 a3 68 09 3d 65 8e 69 3d 47 b2 be bc 9f 5e 1e 3d
       0.033547055 0.057020564 -0.023278369 0.038664456
000030 c6 5d 93 3b 7e 8c a5 bb 80 2e cb 3d e8 e9 8c bd
       0.0044972626 -0.0050521484 0.099209785 -0.068805516

convs.5.weight f4 [4, 4]
000000 d8 c5 4b 3d b6 a7 e2 3e 9e 43 1f 3f 01 ee 9a 3d
       0.049749225 0.44268578 0.6221255 0.07564927
000010 41 6e 56 3e 73 47 2d 3f 46 fb 99 3f ad 8c 94 3e
       0.20940496 0.6768715 1.2029808 0.29013577
000020 40 e8 f0 3f d9 6c 74 3f d0 02 80 3f 5e 3c be 3d
       1.8820877 0.9547859 1.0000858 0.09288858
000030 27 36 26 3f e2 a0 5a 3f 1d e0 02 3f f8 eb c2 3f
       0.6492638 0.8540174 0.5112322 1.5228262

convs.5.bias f4 [4]
000000 8a f6 55 3e d0 8a 32 3e 84 90 e5 be 49 b1 23 bd
       0.20894828 0.17435765 -0.4483682 -0.039963994

convs.6.weight f4 [1, 16, 1, 1]
000000 34 d6 da 3e 6f 33 28 be 71 3a 3b 3f 49 5b 5d be
       0.4274155 -0.1642587 0.7313605 -0.21616854
000010 bf f8 48 bc cd 2f 4c be 57 c0 2c bd db 07 0f 3f
       -0.012266337 -0.1994011 -0.042175617 0.5587136
000020 0e ba b3 3f 30 bd 8f be f1 4c 8d 3f 54 38 32 3e
       1.4041154 -0.28074026 1.1039106 0.174043
000030 4d 93 30 bf dd 9a 93 bf 92 80 86 3e 83 26 1e bd
       -0.68974763 -1.1531636 0.26269966 -0.038610946
