tools/ML/Data/ML_DET_RES_5_Photo.pt (torch, 3713 bytes, 5 tensors)

convs.1.weight f4 [4, 1, 1, 3]
00000000: 78f8 513e 1806 353e 714a 06bf 40c7 023f
00000010: c039 0dbc 645f 133f 4ecc 983e 326e 0abf
00000020: b9ea 83be aab1 073f 8516 05bf 6505 bebe
0.2050494 0.17678106 -0.5245734 0.5108528 -0.008619726 0.5756743 0.29843372 -0.54074395
-0.25765017 0.5300547 -0.5198749 -0.3711349

convs.1.bias f4 [4]
00000000: c4f6 d5bd 2053 773d 7cf1 f93e 5782 05bf
-0.104474574 0.06038201 0.4881705 -0.5215201

convs.3.weight f4 [4, 4, 4, 5]
00000000: de8f 893d 7e18 1bbd 20d1 ee3b ee29 86bd
00000010: a9ed 79bd e202 9f3d 3cbb 713d d84c 4b3d
00000020: f045 643d 5418 dabc b8d3 b53c a2a0 93bd
00000030: 40a0 c2bd d451 0e3d 48f5 373c 115d d5bd
00000040: 7c78 753d 70f7 fcbb fc87 4a3d 083e f6bc
00000050: bc0e 1d3d f8b5 c13c ae88 47bd b012 903d
00000060: f019 b7bc 068c de3d 52e6 1abd 60b3 873d
00000070: 2695 a23d 382d 953c 30fb 683c ece9 a5bc
00000080: a65f b7bd a8dc 813d 3e44 bc3d aeb6 b93d
00000090: 4d29 e3bd b15f acbd f4cf 883d 5c47 2b3d
000000a0: ac4b 973d 4a39 ca3d f1ae 97bd fb33 b6bd
000000b0: 77d4 d0bd c916 a7bd 1e29 9dbd 261f b43d
000000c0: 9460 43bd d0b6 7bbd 00ce b0bd f4ad a43d
000000d0: 68e8 ab3d aa11 47bd 42fe 42bd 682c cd3d
000000e0: 270b 65bd c002 1ebc f207 d33d d41d 463d
000000f0: d07c 08bd 9163 89bd 4097 edbc a476 9c3d
00000100: ef37 b5bd dc95 b9bd f492 de3d 000a b5b9
00000110: f125 88bd 348f 6e3d caf6 9f3d 169c a43d
00000120: e07d ecbc 8675 afbd 44c3 cc3d 58cb 66bd
00000130: e87e c03d 0009 7dba 72bf 15bd 9f7d a9bd
00000140: 48e9 133d c828 a0bd 6023 e0bd 9e2d 32bd
00000150: 7878 373d 5cfb c8bc e077 633d 34ac 143d
00000160: c87d 763d bc28 b5bd 3048 443c 7ccd 8ebd
00000170: d171 d6bd 18c6 f43c 404d 743c 4050 d5ba
00000180: 38a1 be3d 9e23 bcbd 28d2 72bd 3961 c5bd
00000190: ba14 913d f433 d63d 46ac 4ebd 54d9 99bd
000001a0: 5ca5 49bd 2025 43bd f8fe de3d 28af 81bc
000001b0: 2a35 5fbd f89c 52bc f8e9 a1bc 3c6d 133d
000001c0: 4e95 06bd 8615 40bd 247f 5b3d 6d37 a0bd
000001d0: 205c b93d 1864 d03c ace3 eebc 0ca1 d0bd
000001e0: f109 d4bd 16da 97bd 90fd 5e3c b6b6 bdbd
000001f0: 4c17 cc3d 16e1 ba3d b8bd 5c3d 3837 adbd
00000200: b0be d03d 822b aabd 2e57 a23d c4e9 b33d
00000210: b670 36bd de70 8a3d 483a 97bc 74db fcbc
00000220: 803e 823d 8ce9 823d 1089 3a3c 6857 e3bd
00000230: 9ca6 69bd bc2a c8bd 1495 6d3d d281 8cbd
00000240: dcd7 793d 8445 f7bc 969a e0bd 1495 32bd
00000250: 309d 88bc e8c9 88bd e8b9 ac3d ac2c 9e3d
00000260: f080 4fbc 684f 30bd 6694 893d 5269 d33d
00000270: 49c9 a7bd 68f6 da3d c0ae 9b3b 2f8b 7dbd
00000280: 1252 953d 4c69 c83d 6ab3 1dbd 4647 a63d
00000290: 124a 6ebd 2086 9e3d b444 40bd be65 923d
000002a0: 9441 cebd 8ca2 f0bc f8c1 da3d f022 b93d
000002b0: b093 bbbb 80b8 fcbb 588e 1e3d 10a7 debb
000002c0: 1c27 bebd 8b99 b9bd 6067 89bb c06b abbd
000002d0: 26b4 d2bd 8e74 d83d 48f3 2dbc 706b 973d
000002e0: 38e8 f5bc 24d7 b9bc 1126 80bd 8f1c 86bd
000002f0: 4ce8 de3d 68bc 5a3d 42a4 93bd 4877 533d
00000300: 7c97 563d a008 873c cac4 8dbd d0a5 cebc
00000310: 0db8 86bd 68f3 813d 506e df3d f886 0ebd
00000320: f5c6 58bd 9e37 b63d b416 cb3d 8283 9a3d
00000330: f0aa d93c 48c5 483d 1897 febc c8b1 493c
00000340: c4f7 debc 8081 9e3a a822 09bd de96 8fbd
00000350: c874 413c 5fd7 d7bd b632 983d 48e5 b1bd
00000360: b468 bd3d b06c d63b 1c6c 703d ffea acbd
00000370: acfe 8a3d 6000 92bc 705f 3cbc 607e 64bb
00000380: eae9 b8bd 802d 52bc 50d7 b3bb d8ff c23d
00000390: 655e 61bd c010 77bc 8081 843b eed5 dabd
000003a0: e3e9 4bbd 4e54 67bd 58d3 023d 58bd 8e3d
000003b0: 60a3 c9bd faae bc3d 1c55 9f3d 4052 6c3c
000003c0: 4e59 ab3d 0f01 e0bd fec4 c8bd a6ca ccbd
000003d0: 307b 7e3c 4018 fb3b bc9c 26bd 60da ffbc
000003e0: 9087 523c 80b7 23bb 58bd fb3c 192c b3bd
000003f0: a86b a33c 1ec9 d3bd 00a6 1f3d 9eda 883d
0.067168936 -0.037865154 0.0072881132 -0.06550966 -0.061017666 0.07764222 0.05901645 0.04963383
0.05573076 -0.026622929 0.022195682 -0.07208373 -0.095032215 0.034746006 0.011227913 -0.10418142
0.059929356 -0.0077199265 0.04944609 -0.030058876 0.03834413 0.02364634 -0.048714332 0.07034814
-0.022351235 0.10866551 -0.037817307 0.0662601 0.07938604 0.018210039 0.014220044 -0.020253144
-0.0895379 0.06340915 0.09192704 0.090680465 -0.11091862 -0.08416689 0.06680289 0.0418161
0.0738748 0.09874208 -0.07406414 -0.08896633 -0.101967745 -0.08158643 -0.07673858 0.087950036
-0.047699526 -0.06145364 -0.086330414 0.080409914 0.08393937 -0.04860083 -0.04760576 0.100182354
-0.05591884 -0.00964421 0.1030425 0.04836829 -0.033322155 -0.06708444 -0.029002786 0.076398164
-0.08848559 -0.090617865 0.10867873 -0.0003453046 -0.06647862 0.058242038 0.07810743 0.080375835
-0.028868616 -0.08567338 0.099981815 -0.056346267 0.093992054 -0.0009652525 -0.03655953 -0.082759134
0.036111146 -0.078202784 -0.10944247 -0.043500535 0.044792622 -0.02453392 0.055534244 0.03629704
0.060178548 -0.0884566 0.0119801015 -0.06972787 -0.104709275 0.029879615 0.014910996 -0.0016274527
0.09308094 -0.09186481 -0.059282452 -0.096376844 0.070840314 0.10459128 -0.05045726 -0.07512155
-0.049229965 -0.047642827 0.10888475 -0.015830591 -0.05449406 -0.012854807 -0.019764885 0.035992846
-0.03285723 -0.046895526 0.053588048 -0.07823072 0.090507746 0.025438353 -0.029161297 -0.10186967
-0.10353459 -0.074146435 0.013610259 -0.09263365 0.09965381 0.09124963 0.053891867 -0.08457798
0.10192621 -0.0830908 0.079267845 0.08784822 -0.044541083 0.06759809 -0.018460408 -0.030866362
0.06359577 0.06392202 0.011385217 -0.11100656 -0.057043657 -0.09773776 0.0580035 -0.06860699
0.060996875 -0.030184515 -0.10966985 -0.043599203 -0.016676515 -0.066791356 0.08433896 0.07723364
-0.012665018 -0.043044478 0.06717758 0.10322823 -0.08192689 0.106915295 0.0047510564 -0.061900314
0.07291044 0.09785709 -0.03850118 0.08119063 -0.058176108 0.07740426 -0.04694052 0.07148312
-0.10071102 -0.029374383 0.10681528 0.09039867 -0.005724393 -0.007712424 0.03870997 -0.0067948177
-0.09284803 -0.09062489 -0.0041932315 -0.08370161 -0.10288267 0.10569106 -0.010617085 0.07393539
-0.030017957 -0.022685595 -0.062572606 -0.06548416 0.10884151 0.053402334 -0.07209064 0.051627427
0.05239056 0.016483605 -0.069223 -0.02522555 -0.06578074 0.06345254 0.10909712 -0.034796685
-0.052924115 0.08897327 0.0991644 0.075446144 0.026570767 0.049016267 -0.031077906 0.012310453
-0.027217753 0.0012093037 -0.033480316 -0.070111975 0.011807628 -0.10539126 0.07431547 -0.0868631
0.09248486 0.0065437183 0.05869685 -0.084432594 0.06786856 -0.017822444 -0.011497363 -0.0034865364
-0.090289906 -0.012828231 -0.0054883137 0.095214546 -0.055021662 -0.015079677 0.004043758 -0.10685335
-0.0497836 -0.056476884 0.031939834 0.06969708 -0.098456144 0.09213062 0.07779905 0.014423907
0.08366643 -0.10937702 -0.09803198 -0.099995896 0.0155323 0.007662803 -0.040676817 -0.031232059
0.012849703 -0.00249812 0.030729935 -0.08748645 0.019948795 -0.103410944 0.03897667 0.06682323

convs.3.bias f4 [4]
00000000: 1363 b8bd 3ec2 c83d 20f3 7d3d 660c df3d
-0.09003272 0.09802674 0.06199944 0.10891037

convs.5.weight f4 [1, 4, 1, 1]
00000000: 04dd 9d3e 72a7 b7be 28a9 8a3e 54d6 39be
0.30832684 -0.35869938 0.2708218 -0.18148166
