tools/ML/Data/ML_DET_RES_5_Photo2.pt (torch, 10579 bytes, 20 tensors)

conv1.weight f4 [4, 1, 1, 3]
0.065845825 -0.00015415813 -0.066414215 -0.19617261 0.0821307 0.07164147 0.24704096 -0.03166258
-0.3183415 0.5349178 -0.06433333 -0.682827
00000000: 2dda 863d 82a5 21b9 2d04 88bd 79e1 48be
00000010: 2434 a83d c3b8 923d 4ef8 7c3e 9fb0 01bd
00000020: a8fd a2be 5ff0 083f 31c1 83bd c0cd 2ebf

conv1.bias f4 [4]
-0.1560504 0.09767902 0.2677127 -0.5405402
00000000: adcb 1fbe f00b c83d a411 893e d860 0abf

lin1.weight f4 [8, 8]
0.6170286 0.86575776 0.60516447 0.2835932 0.66897583 1.1260002 1.3020033 1.7223219
1.9157108 0.87312746 1.7708713 1.4991118 1.3730743 1.9736129 1.2730615 0.9538812
0.602355 0.97590846 1.2213829 1.6202105 1.7412516 0.8388233 0.46385247 0.79092664
0.76514703 1.8460854 0.7876302 2.0723395 0.24036498 1.0885073 0.6614809 1.3478863
0.86811984 1.4774194 0.6707353 1.3608849 0.63177645 0.46574202 0.5382924 1.0330403
1.2775716 1.0044867 0.94264096 1.0969292 1.230846 1.1695101 1.1045582 0.93033314
0.84907204 -0.044285305 1.2209932 0.33684906 1.2081642 0.6415235 -0.015442795 1.220801
2.352954 1.3617294 0.7869755 1.9493086 1.0955571 0.9545642 0.5368384 0.9038872
00000000: 96f5 1d3f 4da2 5d3f 0fec 1a3f 2133 913e
00000010: 0042 2b3f c620 903f 0ba8 a63f 0b75 dc3f
00000020: 0336 f53f 4885 5f3f e9ab e23f e5e2 bf3f
00000030: e6c0 af3f 599f fc3f aef3 a23f 8f31 743f
00000040: f033 1a3f 23d5 793f 4656 9c3f 0f63 cf3f
00000050: 55e1 de3f 20bd 563f 127e ed3e 2b7a 4a3f
00000060: ade0 433f 874c ec3f 22a2 493f 36a1 0440
00000070: 3d22 763e 3554 8b3f d056 293f 8a87 ac3f
00000080: 1a3d 5e3f 141c bd3f 4fb5 2b3f 7a31 ae3f
00000090: 1abc 213f bd75 ee3e 88cd 093f aa3a 843f
000000a0: 7787 a33f 0593 803f eb50 713f 2d68 8c3f
000000b0: 5d8c 9d3f 82b2 953f 2a62 8d3f 502a 6e3f
000000c0: c95c 593f 8264 35bd 8149 9c3f 7b77 ac3e
000000d0: 20a5 9a3f e23a 243f c703 7dbc 3543 9c3f
000000e0: cc96 1640 264d ae3f 3a77 493f f282 f93f
000000f0: 373b 8c3f 525e 743f 3e6e 093f 2765 673f

lin1.bias f4 [8]
-0.26567137 -0.29036126 0.33626968 0.0010488691 -0.21280886 0.16963828 0.24598548 0.25988412
00000000: 1406 88be 3baa 94be 8a2b ac3e 357a 893a
00000010: 91ea 59be a8b5 2d3e 9ee3 7b3e 880f 853e

conv2.weight f4 [16, 4, 4, 5]
-0.2659483 -1.0924188 0.80366963 -1.2301416 -0.7619508 -0.61953795 0.95407975 -0.2709802
-0.57891715 0.86600316 0.1656434 -1.2975768 -0.030597426 0.09464036 -0.65636116 -0.997833
1.2266477 1.0884944 0.33738333 -0.17675382 -0.7238011 -1.1486528 2.2286284 -0.7756271
0.14047123 0.15249527 -0.44611186 0.16705091 0.24780007 -0.45407447 -0.72213954 -0.40573257
-1.2156848 -0.40168825 1.1296318 0.4104314 -1.8909394 1.0404156 -1.0962707 -1.3390416
1.1085238 -1.1652533 0.7214023 -0.047240812 0.2607265 -0.91629386 0.5604189 0.98712164
1.9670025 1.3218509 -1.7214562 0.7207343 0.5083412 0.77515763 -2.146379 -0.43713206
0.5647833 -0.89833474 -0.19545415 -0.8744401 -0.92989445 -0.7477182 0.3680659 0.047425833
1.5606608 0.30993018 -0.024158109 -0.95786023 -0.21782269 -0.13528946 2.0919156 -1.0106485
0.94366974 -0.437445 -0.11052212 1.8142681 -2.1006594 0.001862372 -2.2177694 -0.18379009
-1.2869229 -1.4143955 -0.081744805 -1.836336 0.19334447 -0.3178118 -0.39440903 0.8232027
0.13804653 0.920683 -1.105063 1.4628081 0.04938644 0.17985222 1.0040904 0.35739216
-0.8021911 0.25946075 0.30062005 1.1779808 1.0610446 0.05584518 0.115731776 -0.6540052
0.8974929 2.9324012 -0.2384393 -2.1971319 0.072213985 0.33312395 -0.6677142 0.5018729
-0.05129914 -0.23085487 1.4880148 0.37649286 0.742259 -1.020956 -0.8116165 1.6784022
-0.42253035 -1.1566275 -1.165163 0.67627496 1.8432962 -2.5385046 -1.5626482 1.7107077
-1.2520785 1.399737 -0.15792602 -0.34345645 1.70932 0.8046434 -1.9552135 -1.2961628
0.3906267 -1.7014015 0.5422892 -0.7943284 -0.17694582 -0.91808265 -1.0599498 -0.5015468
0.3788657 1.8088702 -0.7740855 0.017068146 1.1581557 -0.43522614 1.1045302 0.28269416
-2.0971901 -0.29753435 -0.057714924 -0.34996778 0.6666889 1.4785329 0.31509566 0.39334157
0.49604017 0.9201517 0.27509657 0.30079535 -0.513011 0.99114305 -0.6800204 -1.0439359
1.305623 0.030041767 0.07422754 -0.97277755 -0.543862 1.4519895 -0.2765314 1.3393155
1.5584303 -1.5010945 0.75724465 -0.61002344 0.076927945 0.0064053847 -2.505822 0.32151997
0.093197964 0.19920145 -0.23520003 0.32552278 -0.7742826 1.1718369 -1.201113 0.4615637
1.2612348 1.9486718 0.23353913 -0.51959723 0.8959744 0.048155434 -1.5482396 0.3889889
1.3126458 2.9356165 0.9839947 -0.19103388 1.0469178 -0.96057737 -0.12734462 -0.7692485
-1.8079089 -1.0249456 0.49919912 0.08776891 0.48827404 -1.335367 1.2319187 0.70752865
-0.05822162 -0.14703533 0.15343897 -1.1560277 -0.70568776 0.47515646 -0.1266031 0.14770974
-0.43288508 -0.18604192 -0.08122773 1.275794 1.3351833 1.0871109 -1.80228 1.8585703
-0.22111349 -0.18887813 -0.40450698 -0.83461136 -0.945595 0.62971216 1.1593354 -0.027251014
-1.893175 -2.606911 0.34805527 -1.236029 0.997725 1.3108087 0.1907038 -0.124619156
2.6368215 -1.3937244 -0.14698355 0.43155795 -0.12623876 -0.42887655 0.78362334 0.8166693
00000000: 602a 88be 61d4 8bbf 4bbd 4d3f 4875 9dbf
00000010: 350f 43bf 0a9a 1ebf 923e 743f ebbd 8abe
00000020: ea33 14bf 62b2 5d3f 6c9e 293e ff16 a6bf
00000030: 74a7 fabc ced2 c13d 4907 28bf fc71 7fbf
00000040: cb02 9d3f c953 8b3f 82bd ac3e f4fe 34be
00000050: 074b 39bf 0e07 93bf d9a1 0e40 7f8f 46bf
00000060: b1d7 0f3e b827 1c3e c668 e4be 650f 2b3e
00000070: 4dbf 7d3e 737c e8be 23de 38bf 2ebc cfbe
00000080: 8f9b 9bbf 15aa cdbe c697 903f 1124 d23e
00000090: 4d0a f2bf 572c 853f 9952 8cbf b765 abbf
000000a0: 1ce4 8d3f 0527 95bf d2ad 383f 957f 41bd
000000b0: f27d 853e 3c92 6abf 9d77 0f3f 01b4 7c3f
000000c0: bdc6 fb3f 6932 a93f ad58 dcbf 0b82 383f
000000d0: a622 023f bb70 463f 465e 09c0 c6cf dfbe
000000e0: a395 103f 44f9 65bf 2225 48be 4edb 5fbf
000000f0: 900d 6ebf 766a 3fbf 2273 bc3e 9741 423d
00000100: bcc3 c73f 2baf 9e3e 3ae7 c5bc 5436 75bf
00000110: e90c 5fbe 5289 0abe f2e1 0540 ee5c 81bf
00000120: 5794 713f cbf8 dfbe 6c59 e2bd f039 e83f
00000130: 3471 06c0 d61a f43a efef 0dc0 7833 3cbe
00000140: e4b9 a4bf e90a b5bf d269 a7bd 0f0d ebbf
00000150: 18fc 453e 3ab8 a2be fbef c9be 6abd 523f
00000160: 125c 0d3e e2b1 6b3f b472 8dbf 4c3d bb3f
00000170: 7049 4a3d 2e2b 383e 0986 803f 1bfc b63e
00000180: 655c 4dbf 0ad8 843e dfea 993e 13c8 963f
00000190: 4fd0 873f eabd 643d c804 ed3d e36c 27bf
000001a0: 18c2 653f 76ac 3b40 6f29 74be cf9d 0cc0
000001b0: ede4 933d 398f aa3e 51ef 2abf be7a 003f
000001c0: 0c1f 52bd 3865 6cbe 4577 be3f acc3 c03e
000001d0: b004 3e3f b0ae 82bf 19c6 4fbf e2d5 d63f
000001e0: e655 d8be 5f0c 94bf 1024 95bf 5b20 2d3f
000001f0: 21f1 eb3f dc76 22c0 db04 c8bf 78f8 da3f
00000200: 1c44 a0bf 952a b33f 5cb7 21be 86d9 afbe
00000210: ffca da3f 1cfd 4d3f 7044 fabf aae8 a5bf
00000220: 3900 c83e 86c7 d9bf 77d3 0a3f 1b59 4bbf
00000230: 4931 35be 7707 6bbf 6fac 87bf 5f65 00bf
00000240: affa c13e 0f89 e73f 782a 46bf 7fd2 8b3c
00000250: 723e 943f f6d5 debe 3f61 8d3f 4abd 903e
00000260: 5d38 06c0 6c56 98be 7c66 6cbd fa2e b3be
00000270: 20ac 2a3f 9140 bd3f 3854 a13e 1164 c93e
00000280: faf8 fd3e 108f 6b3f 75d9 8c3e d901 9a3e
00000290: b054 03bf 8dbb 7d3f d115 2ebf b19f 85bf
000002a0: a81e a73f 271a f63c 9c04 983d f307 79bf
000002b0: 8a3a 0bbf cbda b93f 8695 8dbe b16e ab3f
000002c0: a57a c73f dd23 c0bf c9da 413f 7f2a 1cbf
000002d0: 668c 9d3d 43e4 d13b 635f 20c0 449e a43e
000002e0: 93de be3d 77fb 4b3e 47d8 70be ecaa a63e
000002f0: 6237 46bf c0fe 953f 12be 99bf 1452 ec3e
00000300: 2470 a13f 146e f93f e224 6f3e 5304 05bf
00000310: 945e 653f a23e 453d b72c c6bf 8e29 c73e
00000320: c704 a83f 24e1 3b40 14e7 7b3f 639e 43be
00000330: 6701 863f 66e8 75bf a166 02be 78ed 44bf
00000340: 8f69 e7bf 6b31 83bf 0797 ff3e 30c0 b33d
00000350: 0eff f93e 4eed aabf 83af 9d3f 9920 353f
00000360: cb79 6ebd 6e90 16be 1b1f 1d3e b7f8 93bf
00000370: f4a7 34bf b547 f33e 3ea4 01be 3941 173e
00000380: 1da3 ddbe c681 3ebe b95a a6bd 384d a33f
00000390: 49e7 aa3f 7326 8b3f 1cb1 e6bf a2e5 ed3f
000003a0: 936b 62be 4569 41be 8a1b cfbe 17a9 55bf
000003b0: 8412 72bf d134 213f 1a65 943f 853d dfbc
000003c0: 8f53 f2bf a1d7 26c0 4d34 b23e 3336 9ebf
000003d0: e86a 7f3f 94c8 a73f db47 433e 5438 ffbd
000003e0: afc1 2840 9065 b2bf db82 16be 2af5 dc3e
000003f0: bc44 01be b595 dbbe 8a9b 483f 3d11 513f

conv2.bias f4 [16]
0.07353665 0.11802563 0.04519521 -0.033481907 -0.06660489 -0.0801855 0.06194239 -0.029447285
0.033948272 0.056185927 -0.022888089 0.039075974 0.003780678 -0.0066105695 0.070384204 -0.07018793
00000000: 629a 963d 6cb7 f13d 9d1e 393d 5324 09bd
00000010: 2568 88bd 4c38 a4bd 4eb7 7d3d 6f3b f1bc
00000020: 580d 0b3d 3723 663d cd7f bbbc 210e 203d
00000030: 40c5 773b 7a9d d8bb 9825 903d b0be 8fbd

lin2.weight f4 [4, 4]
0.063252725 0.4501206 0.6216851 0.08138165 0.1898321 0.656243 1.2020719 0.28407595
1.8623389 0.93979114 0.9893517 0.09084896 0.6296755 0.8335932 0.5043284 1.535319
00000000: a58a 813d 3576 e63e c126 1f3f 6cab a63d
00000010: 5963 423e 8bff 273f 7edd 993f 6772 913e
00000020: 1f61 ee3f 2796 703f 2746 7d3f 050f ba3d
00000030: 6a32 213f 5d66 553f ab1b 013f 5585 c43f

lin2.bias f4 [4]
0.20944907 0.16952059 -0.45775643 -0.054640844
00000000: d179 563e ce96 2d3e 0d5f eabe 14cf 5fbd

conv3.weight f4 [1, 16, 1, 1]
0.42362082 -0.16183057 0.7338358 -0.21715517 -0.013528851 -0.19993839 -0.03523224 0.55384284
1.4027178 -0.2776807 1.1038754 0.17435369 -0.6890715 -1.1487653 0.24100609 -0.036356255
00000000: d4e4 d83e eab6 25be aadc 3b3f ed5d 5ebe
00000010: 1da8 5dbc a6bc 4cbe ae4f 10bd a5c8 0d3f
00000020: 428c b33f 2a2c 8ebe ca4b 8d3f c689 323e
00000030: fd66 30bf be0a 93bf 4dca 763e 4cea 14bd

lin3.weight f4 [4, 4]
2.2120667 -1.1346087 -0.048693463 0.0054596444 -0.099369965 0.8137698 0.027467044 0.012468787
0.43583804 -1.5268754 0.8548929 0.013800836 0.11155518 -1.2285107 -0.023837417 0.8829404
00000000: 8092 0d40 dc3a 91bf cc72 47bd d1e6 b23b
00000010: 7b82 cbbd 3853 503f 9102 e13c e249 4c3c
00000020: 2a26 df3e a770 c3bf 43da 5a3f e71c 623c
00000030: 0b77 e43d d73f 9dbf b046 c3bc 6208 623f

lin3.bias f4 [4]
-22.999214 18.797283 22.085392 24.506199
00000000: 64fe b7c1 d660 9641 e2ae b041 b20c c441

convs.0.weight f4 [4, 1, 1, 3]
0.065845825 -0.00015415813 -0.066414215 -0.19617261 0.0821307 0.07164147 0.24704096 -0.03166258
-0.3183415 0.5349178 -0.06433333 -0.682827
00000000: 2dda 863d 82a5 21b9 2d04 88bd 79e1 48be
00000010: 2434 a83d c3b8 923d 4ef8 7c3e 9fb0 01bd
00000020: a8fd a2be 5ff0 083f 31c1 83bd c0cd 2ebf

convs.0.bias f4 [4]
-0.1560504 0.09767902 0.2677127 -0.5405402
00000000: adcb 1fbe f00b c83d a411 893e d860 0abf

convs.2.weight f4 [8, 8]
0.6170286 0.86575776 0.60516447 0.2835932 0.66897583 1.1260002 1.3020033 1.7223219
1.9157108 0.87312746 1.7708713 1.4991118 1.3730743 1.9736129 1.2730615 0.9538812
0.602355 0.97590846 1.2213829 1.6202105 1.7412516 0.8388233 0.46385247 0.79092664
0.76514703 1.8460854 0.7876302 2.0723395 0.24036498 1.0885073 0.6614809 1.3478863
0.86811984 1.4774194 0.6707353 1.3608849 0.63177645 0.46574202 0.5382924 1.0330403
1.2775716 1.0044867 0.94264096 1.0969292 1.230846 1.1695101 1.1045582 0.93033314
0.84907204 -0.044285305 1.2209932 0.33684906 1.2081642 0.6415235 -0.015442795 1.220801
2.352954 1.3617294 0.7869755 1.9493086 1.0955571 0.9545642 0.5368384 0.9038872
00000000: 96f5 1d3f 4da2 5d3f 0fec 1a3f 2133 913e
00000010: 0042 2b3f c620 903f 0ba8 a63f 0b75 dc3f
00000020: 0336 f53f 4885 5f3f e9ab e23f e5e2 bf3f
00000030: e6c0 af3f 599f fc3f aef3 a23f 8f31 743f
00000040: f033 1a3f 23d5 793f 4656 9c3f 0f63 cf3f
00000050: 55e1 de3f 20bd 563f 127e ed3e 2b7a 4a3f
00000060: ade0 433f 874c ec3f 22a2 493f 36a1 0440
00000070: 3d22 763e 3554 8b3f d056 293f 8a87 ac3f
00000080: 1a3d 5e3f 141c bd3f 4fb5 2b3f 7a31 ae3f
00000090: 1abc 213f bd75 ee3e 88cd 093f aa3a 843f
000000a0: 7787 a33f 0593 803f eb50 713f 2d68 8c3f
000000b0: 5d8c 9d3f 82b2 953f 2a62 8d3f 502a 6e3f
000000c0: c95c 593f 8264 35bd 8149 9c3f 7b77 ac3e
000000d0: 20a5 9a3f e23a 243f c703 7dbc 3543 9c3f
000000e0: cc96 1640 264d ae3f 3a77 493f f282 f93f
000000f0: 373b 8c3f 525e 743f 3e6e 093f 2765 673f

convs.2.bias f4 [8]
-0.26567137 -0.29036126 0.33626968 0.0010488691 -0.21280886 0.16963828 0.24598548 0.25988412
00000000: 1406 88be 3baa 94be 8a2b ac3e 357a 893a
00000010: 91ea 59be a8b5 2d3e 9ee3 7b3e 880f 853e

convs.3.weight f4 [16, 4, 4, 5]
-0.2659483 -1.0924188 0.80366963 -1.2301416 -0.7619508 -0.61953795 0.95407975 -0.2709802
-0.57891715 0.86600316 0.1656434 -1.2975768 -0.030597426 0.09464036 -0.65636116 -0.997833
1.2266477 1.0884944 0.33738333 -0.17675382 -0.7238011 -1.1486528 2.2286284 -0.7756271
0.14047123 0.15249527 -0.44611186 0.16705091 0.24780007 -0.45407447 -0.72213954 -0.40573257
-1.2156848 -0.40168825 1.1296318 0.4104314 -1.8909394 1.0404156 -1.0962707 -1.3390416
1.1085238 -1.1652533 0.7214023 -0.047240812 0.2607265 -0.91629386 0.5604189 0.98712164
1.9670025 1.3218509 -1.7214562 0.7207343 0.5083412 0.77515763 -2.146379 -0.43713206
0.5647833 -0.89833474 -0.19545415 -0.8744401 -0.92989445 -0.7477182 0.3680659 0.047425833
1.5606608 0.30993018 -0.024158109 -0.95786023 -0.21782269 -0.13528946 2.0919156 -1.0106485
0.94366974 -0.437445 -0.11052212 1.8142681 -2.1006594 0.001862372 -2.2177694 -0.18379009
-1.2869229 -1.4143955 -0.081744805 -1.836336 0.19334447 -0.3178118 -0.39440903 0.8232027
0.13804653 0.920683 -1.105063 1.4628081 0.04938644 0.17985222 1.0040904 0.35739216
-0.8021911 0.25946075 0.30062005 1.1779808 1.0610446 0.05584518 0.115731776 -0.6540052
0.8974929 2.9324012 -0.2384393 -2.1971319 0.072213985 0.33312395 -0.6677142 0.5018729
-0.05129914 -0.23085487 1.4880148 0.37649286 0.742259 -1.020956 -0.8116165 1.6784022
-0.42253035 -1.1566275 -1.165163 0.67627496 1.8432962 -2.5385046 -1.5626482 1.7107077
-1.2520785 1.399737 -0.15792602 -0.34345645 1.70932 0.8046434 -1.9552135 -1.2961628
0.3906267 -1.7014015 0.5422892 -0.7943284 -0.17694582 -0.91808265 -1.0599498 -0.5015468
0.3788657 1.8088702 -0.7740855 0.017068146 1.1581557 -0.43522614 1.1045302 0.28269416
-2.0971901 -0.29753435 -0.057714924 -0.34996778 0.6666889 1.4785329 0.31509566 0.39334157
0.49604017 0.9201517 0.27509657 0.30079535 -0.513011 0.99114305 -0.6800204 -1.0439359
1.305623 0.030041767 0.07422754 -0.97277755 -0.543862 1.4519895 -0.2765314 1.3393155
1.5584303 -1.5010945 0.75724465 -0.61002344 0.076927945 0.0064053847 -2.505822 0.32151997
0.093197964 0.19920145 -0.23520003 0.32552278 -0.7742826 1.1718369 -1.201113 0.4615637
1.2612348 1.9486718 0.23353913 -0.51959723 0.8959744 0.048155434 -1.5482396 0.3889889
1.3126458 2.9356165 0.9839947 -0.19103388 1.0469178 -0.96057737 -0.12734462 -0.7692485
-1.8079089 -1.0249456 0.49919912 0.08776891 0.48827404 -1.335367 1.2319187 0.70752865
-0.05822162 -0.14703533 0.15343897 -1.1560277 -0.70568776 0.47515646 -0.1266031 0.14770974
-0.43288508 -0.18604192 -0.08122773 1.275794 1.3351833 1.0871109 -1.80228 1.8585703
-0.22111349 -0.18887813 -0.40450698 -0.83461136 -0.945595 0.62971216 1.1593354 -0.027251014
-1.893175 -2.606911 0.34805527 -1.236029 0.997725 1.3108087 0.1907038 -0.124619156
2.6368215 -1.3937244 -0.14698355 0.43155795 -0.12623876 -0.42887655 0.78362334 0.8166693
00000000: 602a 88be 61d4 8bbf 4bbd 4d3f 4875 9dbf
00000010: 350f 43bf 0a9a 1ebf 923e 743f ebbd 8abe
00000020: ea33 14bf 62b2 5d3f 6c9e 293e ff16 a6bf
00000030: 74a7 fabc ced2 c13d 4907 28bf fc71 7fbf
00000040: cb02 9d3f c953 8b3f 82bd ac3e f4fe 34be
00000050: 074b 39bf 0e07 93bf d9a1 0e40 7f8f 46bf
00000060: b1d7 0f3e b827 1c3e c668 e4be 650f 2b3e
00000070: 4dbf 7d3e 737c e8be 23de 38bf 2ebc cfbe
00000080: 8f9b 9bbf 15aa cdbe c697 903f 1124 d23e
00000090: 4d0a f2bf 572c 853f 9952 8cbf b765 abbf
000000a0: 1ce4 8d3f 0527 95bf d2ad 383f 957f 41bd
000000b0: f27d 853e 3c92 6abf 9d77 0f3f 01b4 7c3f
000000c0: bdc6 fb3f 6932 a93f ad58 dcbf 0b82 383f
000000d0: a622 023f bb70 463f 465e 09c0 c6cf dfbe
000000e0: a395 103f 44f9 65bf 2225 48be 4edb 5fbf
000000f0: 900d 6ebf 766a 3fbf 2273 bc3e 9741 423d
00000100: bcc3 c73f 2baf 9e3e 3ae7 c5bc 5436 75bf
00000110: e90c 5fbe 5289 0abe f2e1 0540 ee5c 81bf
00000120: 5794 713f cbf8 dfbe 6c59 e2bd f039 e83f
00000130: 3471 06c0 d61a f43a efef 0dc0 7833 3cbe
00000140: e4b9 a4bf e90a b5bf d269 a7bd 0f0d ebbf
00000150: 18fc 453e 3ab8 a2be fbef c9be 6abd 523f
00000160: 125c 0d3e e2b1 6b3f b472 8dbf 4c3d bb3f
00000170: 7049 4a3d 2e2b 383e 0986 803f 1bfc b63e
00000180: 655c 4dbf 0ad8 843e dfea 993e 13c8 963f
00000190: 4fd0 873f eabd 643d c804 ed3d e36c 27bf
000001a0: 18c2 653f 76ac 3b40 6f29 74be cf9d 0cc0
000001b0: ede4 933d 398f aa3e 51ef 2abf be7a 003f
000001c0: 0c1f 52bd 3865 6cbe 4577 be3f acc3 c03e
000001d0: b004 3e3f b0ae 82bf 19c6 4fbf e2d5 d63f
000001e0: e655 d8be 5f0c 94bf 1024 95bf 5b20 2d3f
000001f0: 21f1 eb3f dc76 22c0 db04 c8bf 78f8 da3f
00000200: 1c44 a0bf 952a b33f 5cb7 21be 86d9 afbe
00000210: ffca da3f 1cfd 4d3f 7044 fabf aae8 a5bf
00000220: 3900 c83e 86c7 d9bf 77d3 0a3f 1b59 4bbf
00000230: 4931 35be 7707 6bbf 6fac 87bf 5f65 00bf
00000240: affa c13e 0f89 e73f 782a 46bf 7fd2 8b3c
00000250: 723e 943f f6d5 debe 3f61 8d3f 4abd 903e
00000260: 5d38 06c0 6c56 98be 7c66 6cbd fa2e b3be
00000270: 20ac 2a3f 9140 bd3f 3854 a13e 1164 c93e
00000280: faf8 fd3e 108f 6b3f 75d9 8c3e d901 9a3e
00000290: b054 03bf 8dbb 7d3f d115 2ebf b19f 85bf
000002a0: a81e a73f 271a f63c 9c04 983d f307 79bf
000002b0: 8a3a 0bbf cbda b93f 8695 8dbe b16e ab3f
000002c0: a57a c73f dd23 c0bf c9da 413f 7f2a 1cbf
000002d0: 668c 9d3d 43e4 d13b 635f 20c0 449e a43e
000002e0: 93de be3d 77fb 4b3e 47d8 70be ecaa a63e
000002f0: 6237 46bf c0fe 953f 12be 99bf 1452 ec3e
00000300: 2470 a13f 146e f93f e224 6f3e 5304 05bf
00000310: 945e 653f a23e 453d b72c c6bf 8e29 c73e
00000320: c704 a83f 24e1 3b40 14e7 7b3f 639e 43be
00000330: 6701 863f 66e8 75bf a166 02be 78ed 44bf
00000340: 8f69 e7bf 6b31 83bf 0797 ff3e 30c0 b33d
00000350: 0eff f93e 4eed aabf 83af 9d3f 9920 353f
00000360: cb79 6ebd 6e90 16be 1b1f 1d3e b7f8 93bf
00000370: f4a7 34bf b547 f33e 3ea4 01be 3941 173e
00000380: 1da3 ddbe c681 3ebe b95a a6bd 384d a33f
00000390: 49e7 aa3f 7326 8b3f 1cb1 e6bf a2e5 ed3f
000003a0: 936b 62be 4569 41be 8a1b cfbe 17a9 55bf
000003b0: 8412 72bf d134 213f 1a65 943f 853d dfbc
000003c0: 8f53 f2bf a1d7 26c0 4d34 b23e 3336 9ebf
000003d0: e86a 7f3f 94c8 a73f db47 433e 5438 ffbd
000003e0: afc1 2840 9065 b2bf db82 16be 2af5 dc3e
000003f0: bc44 01be b595 dbbe 8a9b 483f 3d11 513f

convs.3.bias f4 [16]
0.07353665 0.11802563 0.04519521 -0.033481907 -0.06660489 -0.0801855 0.06194239 -0.029447285
0.033948272 0.056185927 -0.022888089 0.039075974 0.003780678 -0.0066105695 0.070384204 -0.07018793
00000000: 629a 963d 6cb7 f13d 9d1e 393d 5324 09bd
00000010: 2568 88bd 4c38 a4bd 4eb7 7d3d 6f3b f1bc
00000020: 580d 0b3d 3723 663d cd7f bbbc 210e 203d
00000030: 40c5 773b 7a9d d8bb 9825 903d b0be 8fbd

convs.5.weight f4 [4, 4]
0.063252725 0.4501206 0.6216851 0.08138165 0.1898321 0.656243 1.2020719 0.28407595
1.8623389 0.93979114 0.9893517 0.09084896 0.6296755 0.8335932 0.5043284 1.535319
00000000: a58a 813d 3576 e63e c126 1f3f 6cab a63d
00000010: 5963 423e 8bff 273f 7edd 993f 6772 913e
00000020: 1f61 ee3f 2796 703f 2746 7d3f 050f ba3d
00000030: 6a32 213f 5d66 553f ab1b 013f 5585 c43f

convs.5.bias f4 [4]
0.20944907 0.16952059 -0.45775643 -0.054640844
00000000: d179 563e ce96 2d3e 0d5f eabe 14cf 5fbd

convs.6.weight f4 [1, 16, 1, 1]
0.42362082 -0.16183057 0.7338358 -0.21715517 -0.013528851 -0.19993839 -0.03523224 0.55384284
1.4027178 -0.2776807 1.1038754 0.17435369 -0.6890715 -1.1487653 0.24100609 -0.036356255
00000000: d4e4 d83e eab6 25be aadc 3b3f ed5d 5ebe
00000010: 1da8 5dbc a6bc 4cbe ae4f 10bd a5c8 0d3f
00000020: 428c b33f 2a2c 8ebe ca4b 8d3f c689 323e
00000030: fd66 30bf be0a 93bf 4dca 763e 4cea 14bd
