tools/ML/ML_DET_RES_5_Photo.pt (torch, 9933 bytes, 18 tensors)

conv1.weight f4 [4, 1, 1, 3]
000000 33 b6 85 3d cf d2 8f bb 05 c2 90 bd 08 01 91 be
       0.06528892 -0.004389144 -0.07068256 -0.283211
000010 a3 f8 95 3d 70 61 80 3d 6a 6d 81 3e 7a 78 df bc
       0.07322814 0.06268585 0.2527879 -0.027279127
000020 1b cb a4 be 3d ba 09 3f 60 88 8e bd 3f 39 31 bf
       -0.32186207 0.537998 -0.06959605 -0.69227976

conv1.bias f4 [4]
000000 bf bc 00 be 6c e4 4d 3d 9c 2a a2 3e 04 92 10 bf
       -0.12572001 0.05026667 0.31673133 -0.564728

lin1.weight f4 [8, 8]
000000 8d 7d 1d 3f 5d 52 5a 3f b7 a6 1b 3f 49 58 8b 3e
       0.615197 0.85281926 0.6080126 0.27215794
000010 2a ea 2c 3f 06 87 8e 3f f2 6f a9 3f 03 dc da 3f
       0.67544806 1.1134956 1.3237288 1.7098392
000020 07 cd f5 3f 9b c4 5f 3f 66 e0 e3 3f 58 e5 bf 3f
       1.9203194 0.8740937 1.7802856 1.4991865
000030 43 92 b1 3f ef dc fc 3f c2 d7 a4 3f bc 01 74 3f
       1.387276 1.9754924 1.2878344 0.95315146
000040 c7 08 17 3f b6 46 7a 3f 5b 3d 9d 3f 02 d0 cf 3f
       0.5899777 0.97764146 1.2284349 1.6235354
000050 88 2b e2 3f 2f 70 57 3f ea 15 e5 3e 89 d9 4a 3f
       1.7669535 0.84155554 0.44743282 0.7923818
000060 87 1a 44 3f d2 e8 eb 3f 9d 5e 48 3f db 9d 04 40
       0.7660298 1.8430426 0.7826937 2.0721347
000070 5f 39 60 3e c6 09 8b 3f bd 5b 25 3f 82 ad ac 3f
       0.21896885 1.0862358 0.64593107 1.349045
000080 80 36 5d 3f 5f 94 bd 3f c5 53 2b 3f 0d 58 ae 3f
       0.86411285 1.4810904 0.669247 1.3620621
000090 27 f2 21 3f 66 a8 ed 3e c6 9a 0c 3f 5d 2e 84 3f
       0.6326012 0.4641754 0.54923666 1.0326649
0000a0 e8 7b a1 3f c0 b0 80 3f 84 e0 6d 3f 40 16 8c 3f
       1.2615938 1.005394 0.9292071 1.094429
0000b0 71 73 9d 3f 42 7f 95 3f 41 48 8e 3f 6f aa 6c 3f
       1.2300855 1.1679461 1.11158 0.9244756
0000c0 d4 b9 5b 3f 5d 1d 49 bd 30 65 9d 3f ec b8 a9 3e
       0.85830426 -0.04910027 1.2296505 0.33148897
0000d0 49 d0 9a 3f 22 1f 24 3f 8b 13 c3 bc 6c 20 9d 3f
       1.2094814 0.64110005 -0.02381303 1.2275519
0000e0 0d 9d 16 40 72 91 ad 3f a4 bc 48 3f 84 87 f9 3f
       2.3533356 1.3560011 0.7841284 1.9494481
0000f0 37 c9 8c 3f fb 44 73 3f 16 e8 0b 3f 1c ce 64 3f
       1.0998906 0.9502713 0.5465101 0.89377

lin1.bias f4 [8]
000000 00 1a 90 be 8a 0e 92 be dd 55 b0 3e 07 44 e5 3a
       -0.28144836 -0.28526717 0.34440508 0.0017491587
000010 b0 98 5a be ba bc 36 3e c9 9d 77 3e 54 b9 81 3e
       -0.21347308 0.17845431 0.24181284 0.25336707

conv2.weight f4 [16, 4, 4, 5]
000000 9e a1 85 be 8d 07 8d bf 13 60 4f 3f 3a 4e a3 bf
       -0.26099867 -1.1017929 0.8100597 -1.2758248
000010 89 79 42 bf 33 3b 19 bf 7f c2 6c 3f 6b c0 a2 be
       -0.759667 -0.59855956 0.9248428 -0.31787428
000020 86 87 11 bf 4f ff 60 3f 5f 65 26 3e 8a 9f a6 bf
       -0.5684742 0.8788957 0.16249608 -1.3017437
000030 7a c8 00 bd 10 b7 bd 3d cd 08 29 bf 93 12 80 bf
       -0.03144119 0.09263432 -0.66029054 -1.0005668
000040 ba 78 9e 3f ce 0d 8b 3f 1f 19 b5 3e 3c 59 54 be
       1.2380593 1.0863588 0.35370728 -0.20737165
000050 4f 8c 36 bf 71 0b 93 bf 1f 94 0d 40 da 8f 4e bf
       -0.71307844 -1.1487867 2.2121656 -0.8068825
000060 3b 44 29 3e ff 2c 2c 3e 6a 72 d2 be b6 49 5a 3e
       0.16529934 0.1681404 -0.41102916 0.21317181
000070 d5 88 92 3e 0f 9c dc be 68 2d 39 bf 78 2f d0 be
       0.2862002 -0.43087813 -0.7233491 -0.40661216
000080 2a a9 9b bf 99 bf cd be e5 91 90 3f 51 5e d2 3e
       -1.2161 -0.4018524 1.1294523 0.41087583
000090 7a 47 f2 bf 68 18 85 3f bd 1c 8c bf 27 60 ab bf
       -1.8928063 1.0398073 -1.094627 -1.3388718
0000a0 92 cc 8f 3f 84 8e 95 bf 57 2c 3d 3f 0b a7 af bd
       1.1234305 -1.1684117 0.7389578 -0.08576783
0000b0 c9 9a 8e 3e b4 6b 60 bf 45 e6 13 3f 02 56 7e 3f
       0.27852467 -0.8766434 0.5777324 0.9934999
0000c0 b8 b9 ff 3f fb 30 ac 3f 5b 64 dc bf 0c 23 38 3f
       1.9978552 1.3452448 -1.7218126 0.7192848
0000d0 35 26 02 3f c9 68 46 3f dc 57 09 c0 46 20 e4 be
       0.5083955 0.7750364 -2.1459875 -0.44555873
0000e0 d5 66 0f 3f 2b e5 67 bf 42 f5 51 be 0e ca 62 bf
       0.56016284 -0.9058406 -0.20503715 -0.8858956
0000f0 05 b6 6b bf f2 0b 42 bf 37 f5 c1 3e d3 0c d6 3a
       -0.92074615 -0.7579948 0.37882397 0.0016330726
000100 ce 5e c9 3f 45 19 aa 3e a9 52 c3 bc 05 59 78 bf
       1.5732057 0.33222404 -0.023843126 -0.97010833
000110 0a 8b 50 be a6 ba 00 be e4 da 05 40 28 8d 81 bf
       -0.20365539 -0.125712 2.091485 -1.0121202
000120 1a a3 71 3f a0 39 e0 be 2b 56 e2 bd e6 3d e7 3f
       0.943895 -0.43793964 -0.110515915 1.8065765
000130 f4 b1 06 c0 3c 56 bc bb 87 7c 0e c0 3e 72 47 be
       -2.1046114 -0.0057475846 -2.2263505 -0.19477174
000140 55 b7 a7 bf 09 7d b6 bf b6 29 da bd 8f c6 e7 bf
       -1.3102823 -1.4256908 -0.10652487 -1.810747
000150 b6 93 37 3e 08 47 b4 be 28 2d c1 be 6a cd 5c 3f
       0.17927441 -0.35210443 -0.37729764 0.86250937
000160 85 63 e7 3d 0d 0a 66 3f 95 f8 8d bf 40 1a bc 3f
       0.11298279 0.89859086 -1.1091486 1.4695511
000170 5c 00 71 3d 12 eb 32 3e f8 41 80 3f d7 b5 b4 3e
       0.058838233 0.17472485 1.0020132 0.35294983
000180 3e eb 4f bf 99 e7 89 3e 33 83 8e 3e 5c bb 99 3f
       -0.81218326 0.26934507 0.27834472 1.2010303
000190 50 30 84 3f 45 19 22 3d 64 10 f2 3d cd 7e 24 bf
       1.0327244 0.03957488 0.118195325 -0.6425598
0001a0 62 f4 5b 3f 62 72 3a 40 14 34 8e be d9 a8 0f c0
       0.85919774 2.9132314 -0.27774107 -2.2446806
0001b0 96 0f ea 3c f5 11 9d 3e 89 e3 2c bf 4a 31 fb 3e
       0.028571885 0.30677763 -0.6753469 0.49061042
0001c0 e6 66 76 bd 0c 23 75 be 62 ce bd 3f f4 6f be 3e
       -0.060156725 -0.2393915 1.4828608 0.37194788
0001d0 fe 66 3d 3f 3f 15 83 bf 98 65 51 bf 21 6d d6 3f
       0.7398528 -1.0240859 -0.81795645 1.6752053
0001e0 97 e1 eb be 23 e2 96 bf 0e 60 9a bf d6 85 30 3f
       -0.4607055 -1.1787761 -1.2060564 0.6895422
0001f0 9b be e7 3f 69 39 25 c0 bf d8 ca bf 1e 9d d9 3f
       1.8105043 -2.581629 -1.5847396 1.7001073
000200 17 f1 a4 bf 95 b5 af 3f c6 57 18 be 4a 61 ab be
       -1.2886075 1.372729 -0.14877233 -0.33472663
000210 02 ea db 3f 6e ee 50 3f 29 61 f9 bf 36 68 a4 bf
       1.7180789 0.81613815 -1.9482776 -1.2844303
000220 ae a8 cc 3e b9 29 d8 bf c6 8c 0e 3f 16 cf 47 bf
       0.39972442 -1.6887733 0.55683553 -0.78050363
000230 00 e1 56 be e9 09 6f bf 27 26 8c bf b7 6e f6 be
       -0.20984268 -0.93374497 -1.0949143 -0.48131344
000240 d2 93 b3 3e 90 1a e4 3f 5b 71 47 bf 62 53 ce 3c
       0.35073715 1.7820606 -0.7790734 0.025186244
000250 f5 c1 91 3f 4c 4d e5 be 88 97 8e 3f e2 37 95 3e
       1.1387316 -0.44785535 1.1139994 0.29144198
000260 51 ba 05 c0 ff 41 92 be 5f 54 4f bd b7 02 ad be
       -2.0894969 -0.28565976 -0.050617572 -0.33791134
000270 ca e6 2c 3f 89 c6 be 3f 4d ca a8 3e 87 61 d0 3e
       0.67539656 1.4904338 0.32966843 0.40699407
000280 7f 44 00 3f ea 3b 69 3f e8 43 90 3e 4b c8 82 3e
       0.50104517 0.91107047 0.28176808 0.25543436
000290 e9 b3 02 bf dd 87 81 3f 94 8f 35 bf 09 a8 8b bf
       -0.5105577 1.0119587 -0.7092221 -1.0910655
0002a0 c3 6e a8 3f 3a 1a 32 3d 0f 46 91 3d 2f 25 7a bf
       1.3158802 0.043482043 0.07093441 -0.9771299
0002b0 03 4e 0b bf 3c ae b9 3f e3 be 8f be 98 17 ab 3f
       -0.5441591 1.4506297 -0.28075323 1.3366575
0002c0 a1 ed c8 3f 0f 6a c0 bf 2a 13 46 3f 47 ed 23 bf
       1.5697519 -1.5032367 0.7737299 -0.6403393
0002d0 bb 41 b4 3d bd 4c dc 3b d7 69 21 c0 2e c0 94 3e
       0.088015996 0.006723015 -2.522085 0.2905287
0002e0 a1 37 f2 3d 8a 3a 5c 3e fc b8 4c be 28 62 be 3e
       0.118270166 0.21506706 -0.19992441 0.37184262
0002f0 54 59 3c bf 17 f9 98 3f 86 e7 99 bf 0f e8 eb 3e
       -0.73573804 1.1951016 -1.202378 0.46075484
000300 96 66 a1 3f 5d 68 f9 3f 57 3e 6f 3e 2d e9 04 bf
       1.2609432 1.9484974 0.23363625 -0.519183
000310 be f4 64 3f 79 ac 44 3d 54 f6 c5 bf fc 57 c7 3e
       0.89435947 0.048016045 -1.5465798 0.38934314
000320 38 f6 a9 3f 8f ae 3b 40 25 3b 80 3f e0 de 6a be
       1.3278265 2.9325292 1.001805 -0.22936583
000330 09 4f 88 3f 26 b5 6b bf 86 b7 e0 bd 5b 3c 43 bf
       1.064912 -0.92073286 -0.10972504 -0.7626397
000340 17 6f e3 bf e1 29 80 bf 0c 45 ff 3e 04 dd af 3d
       -1.7768277 -1.001278 0.49857366 0.08587077
000350 db e7 f9 3e 35 f3 aa bf 15 af 9d 3f a6 ef 32 3f
       0.48809704 -1.3355471 1.2319056 0.69896924
000360 18 cf 81 bd e6 a2 1e be d9 23 13 3e 76 77 95 bf
       -0.06338328 -0.15491828 0.14369144 -1.1677082
000370 12 44 32 bf 55 2e ee 3e e7 7b ec bd 60 36 d1 3d
       -0.6963512 0.46519724 -0.1154707 0.10215449
000380 00 0f d7 be a9 64 27 be 61 49 a5 bd d8 c0 a1 3f
       -0.42003632 -0.16346993 -0.080706365 1.2636976
000390 30 b7 ac 3f 3f 66 8c 3f 2f ca e6 bf 9d a9 ed 3f
       1.3493404 1.0968703 -1.8030452 1.8567387
0003a0 1b d7 62 be 3f 59 42 be ed 37 cf be 76 bb 57 bf
       -0.22152369 -0.18979357 -0.40472355 -0.8427042
0003b0 58 41 73 bf cf 41 1f 3f c9 3a 93 3f aa 9a 1e bd
       -0.9502158 0.6220979 1.1502315 -0.038721718
0003c0 f7 f0 f2 bf d4 3e 26 c0 42 e4 ae 3e 7b 5d 98 bf
       -1.8979787 -2.5975847 0.34158522 -1.1903528
0003d0 45 d4 7e 3f 2e 1f a5 3f f6 df 60 3e 48 ac 9f bd
       0.9954265 1.290014 0.21960434 -0.07796532
0003e0 97 1f 28 40 47 05 b4 bf e9 49 13 be c9 3c df 3e
       2.626928 -1.406411 -0.14383663 0.43601063
0003f0 be 8e 00 be 71 c2 da be fa 9c 49 3f 55 c4 51 3f
       -0.12554452 -0.42726472 0.7875515 0.81940204

conv2.bias f4 [16]
000000 56 1b 96 3d 29 7b de 3d 22 73 39 3d 32 3d 08 bd
       0.07329433 0.10863335 0.045275815 -0.033261485
000010 dc d6 99 bd 88 c1 a3 bd 9b c3 59 3d bb 87 fa bc
       -0.07511684 -0.079958975 0.05316506 -0.0305823
000020 2c 14 0a 3d c2 e2 68 3d d6 5a bd bc 28 0a 1f 3d
       0.033710644 0.056856878 -0.023114603 0.038828045
000030 da ff 8d 3b 45 4b aa bb 5d 33 cb 3d c3 3f 8d bd
       0.0043334784 -0.005196961 0.09921906 -0.06896927

lin2.weight f4 [4, 4]
000000 5e b2 4c 3d 10 aa e2 3e 9e 43 1f 3f c0 6f 9a 3d
       0.04997479 0.44270372 0.6221255 0.07540846
000010 87 3c 56 3e 73 47 2d 3f 46 fb 99 3f ad 8c 94 3e
       0.20921527 0.6768715 1.2029808 0.29013577
000020 40 e8 f0 3f d9 6c 74 3f d0 02 80 3f 11 3f be 3d
       1.8820877 0.9547859 1.0000858 0.09289373
000030 27 36 26 3f e2 a0 5a 3f 1d e0 02 3f f8 eb c2 3f
       0.6492638 0.8540174 0.5112322 1.5228262

lin2.bias f4 [4]
000000 ec 5e 56 3e fb 4e 32 3e 84 90 e5 be dd cb 23 bd
       0.20934647 0.17412941 -0.4483682 -0.03998934

conv3.weight f4 [1, 16, 1, 1]
000000 ac d2 da 3e af 14 28 be 71 3a 3b 3f cb 81 5d be
       0.42738855 -0.1641414 0.7313605 -0.21631543
000010 94 8f 46 bc 2c 52 4c be 2b 3c 2c bd db 07 0f 3f
       -0.012119193 -0.19953221 -0.04204957 0.5587136
000020 0e ba b3 3f 1f bc 8f be f1 4c 8d 3f 7f 10 32 3e
       1.4041154 -0.28073213 1.1039106 0.17389105
000030 4d 93 30 bf dd 9a 93 bf f6 80 86 3e 23 7a 1d bd
       -0.68974763 -1.1531636 0.26270264 -0.038446557

convs.0.weight f4 [4, 1, 1, 3]
000000 33 b6 85 3d cf d2 8f bb 05 c2 90 bd 08 01 91 be
       0.06528892 -0.004389144 -0.07068256 -0.283211
000010 a3 f8 95 3d 70 61 80 3d 6a 6d 81 3e 7a 78 df bc
       0.07322814 0.06268585 0.2527879 -0.027279127
000020 1b cb a4 be 3d ba 09 3f 60 88 8e bd 3f 39 31 bf
       -0.32186207 0.537998 -0.06959605 -0.69227976

convs.0.bias f4 [4]
000000 bf bc 00 be 6c e4 4d 3d 9c 2a a2 3e 04 92 10 bf
       -0.12572001 0.05026667 0.31673133 -0.564728

convs.2.weight f4 [8, 8]
000000 8d 7d 1d 3f 5d 52 5a 3f b7 a6 1b 3f 49 58 8b 3e
       0.615197 0.85281926 0.6080126 0.27215794
000010 2a ea 2c 3f 06 87 8e 3f f2 6f a9 3f 03 dc da 3f
       0.67544806 1.1134956 1.3237288 1.7098392
000020 07 cd f5 3f 9b c4 5f 3f 66 e0 e3 3f 58 e5 bf 3f
       1.9203194 0.8740937 1.7802856 1.4991865
000030 43 92 b1 3f ef dc fc 3f c2 d7 a4 3f bc 01 74 3f
       1.387276 1.9754924 1.2878344 0.95315146
000040 c7 08 17 3f b6 46 7a 3f 5b 3d 9d 3f 02 d0 cf 3f
       0.5899777 0.97764146 1.2284349 1.6235354
000050 88 2b e2 3f 2f 70 57 3f ea 15 e5 3e 89 d9 4a 3f
       1.7669535 0.84155554 0.44743282 0.7923818
000060 87 1a 44 3f d2 e8 eb 3f 9d 5e 48 3f db 9d 04 40
       0.7660298 1.8430426 0.7826937 2.0721347
000070 5f 39 60 3e c6 09 8b 3f bd 5b 25 3f 82 ad ac 3f
       0.21896885 1.0862358 0.64593107 1.349045
000080 80 36 5d 3f 5f 94 bd 3f c5 53 2b 3f 0d 58 ae 3f
       0.86411285 1.4810904 0.669247 1.3620621
000090 27 f2 21 3f 66 a8 ed 3e c6 9a 0c 3f 5d 2e 84 3f
       0.6326012 0.4641754 0.54923666 1.0326649
0000a0 e8 7b a1 3f c0 b0 80 3f 84 e0 6d 3f 40 16 8c 3f
       1.2615938 1.005394 0.9292071 1.094429
0000b0 71 73 9d 3f 42 7f 95 3f 41 48 8e 3f 6f aa 6c 3f
       1.2300855 1.1679461 1.11158 0.9244756
0000c0 d4 b9 5b 3f 5d 1d 49 bd 30 65 9d 3f ec b8 a9 3e
       0.85830426 -0.04910027 1.2296505 0.33148897
0000d0 49 d0 9a 3f 22 1f 24 3f 8b 13 c3 bc 6c 20 9d 3f
       1.2094814 0.64110005 -0.02381303 1.2275519
0000e0 0d 9d 16 40 72 91 ad 3f a4 bc 48 3f 84 87 f9 3f
       2.3533356 1.3560011 0.7841284 1.9494481
0000f0 37 c9 8c 3f fb 44 73 3f 16 e8 0b 3f 1c ce 64 3f
       1.0998906 0.9502713 0.5465101 0.89377

convs.2.bias f4 [8]
000000 00 1a 90 be 8a 0e 92 be dd 55 b0 3e 07 44 e5 3a
       -0.28144836 -0.28526717 0.34440508 0.0017491587
000010 b0 98 5a be ba bc 36 3e c9 9d 77 3e 54 b9 81 3e
       -0.21347308 0.17845431 0.24181284 0.25336707

convs.3.weight f4 [16, 4, 4, 5]
000000 9e a1 85 be 8d 07 8d bf 13 60 4f 3f 3a 4e a3 bf
       -0.26099867 -1.1017929 0.8100597 -1.2758248
000010 89 79 42 bf 33 3b 19 bf 7f c2 6c 3f 6b c0 a2 be
       -0.759667 -0.59855956 0.9248428 -0.31787428
000020 86 87 11 bf 4f ff 60 3f 5f 65 26 3e 8a 9f a6 bf
       -0.5684742 0.8788957 0.16249608 -1.3017437
000030 7a c8 00 bd 10 b7 bd 3d cd 08 29 bf 93 12 80 bf
       -0.03144119 0.09263432 -0.66029054 -1.0005668
000040 ba 78 9e 3f ce 0d 8b 3f 1f 19 b5 3e 3c 59 54 be
       1.2380593 1.0863588 0.35370728 -0.20737165
000050 4f 8c 36 bf 71 0b 93 bf 1f 94 0d 40 da 8f 4e bf
       -0.71307844 -1.1487867 2.2121656 -0.8068825
000060 3b 44 29 3e ff 2c 2c 3e 6a 72 d2 be b6 49 5a 3e
       0.16529934 0.1681404 -0.41102916 0.21317181
000070 d5 88 92 3e 0f 9c dc be 68 2d 39 bf 78 2f d0 be
       0.2862002 -0.43087813 -0.7233491 -0.40661216
000080 2a a9 9b bf 99 bf cd be e5 91 90 3f 51 5e d2 3e
       -1.2161 -0.4018524 1.1294523 0.41087583
000090 7a 47 f2 bf 68 18 85 3f bd 1c 8c bf 27 60 ab bf
       -1.8928063 1.0398073 -1.094627 -1.3388718
0000a0 92 cc 8f 3f 84 8e 95 bf 57 2c 3d 3f 0b a7 af bd
       1.1234305 -1.1684117 0.7389578 -0.08576783
0000b0 c9 9a 8e 3e b4 6b 60 bf 45 e6 13 3f 02 56 7e 3f
       0.27852467 -0.8766434 0.5777324 0.9934999
0000c0 b8 b9 ff 3f fb 30 ac 3f 5b 64 dc bf 0c 23 38 3f
       1.9978552 1.3452448 -1.7218126 0.7192848
0000d0 35 26 02 3f c9 68 46 3f dc 57 09 c0 46 20 e4 be
       0.5083955 0.7750364 -2.1459875 -0.44555873
0000e0 d5 66 0f 3f 2b e5 67 bf 42 f5 51 be 0e ca 62 bf
       0.56016284 -0.9058406 -0.20503715 -0.8858956
0000f0 05 b6 6b bf f2 0b 42 bf 37 f5 c1 3e d3 0c d6 3a
       -0.92074615 -0.7579948 0.37882397 0.0016330726
000100 ce 5e c9 3f 45 19 aa 3e a9 52 c3 bc 05 59 78 bf
       1.5732057 0.33222404 -0.023843126 -0.97010833
000110 0a 8b 50 be a6 ba 00 be e4 da 05 40 28 8d 81 bf
       -0.20365539 -0.125712 2.091485 -1.0121202
000120 1a a3 71 3f a0 39 e0 be 2b 56 e2 bd e6 3d e7 3f
       0.943895 -0.43793964 -0.110515915 1.8065765
000130 f4 b1 06 c0 3c 56 bc bb 87 7c 0e c0 3e 72 47 be
       -2.1046114 -0.0057475846 -2.2263505 -0.19477174
000140 55 b7 a7 bf 09 7d b6 bf b6 29 da bd 8f c6 e7 bf
       -1.3102823 -1.4256908 -0.10652487 -1.810747
000150 b6 93 37 3e 08 47 b4 be 28 2d c1 be 6a cd 5c 3f
       0.17927441 -0.35210443 -0.37729764 0.86250937
000160 85 63 e7 3d 0d 0a 66 3f 95 f8 8d bf 40 1a bc 3f
       0.11298279 0.89859086 -1.1091486 1.4695511
000170 5c 00 71 3d 12 eb 32 3e f8 41 80 3f d7 b5 b4 3e
       0.058838233 0.17472485 1.0020132 0.35294983
000180 3e eb 4f bf 99 e7 89 3e 33 83 8e 3e 5c bb 99 3f
       -0.81218326 0.26934507 0.27834472 1.2010303
000190 50 30 84 3f 45 19 22 3d 64 10 f2 3d cd 7e 24 bf
       1.0327244 0.03957488 0.118195325 -0.6425598
0001a0 62 f4 5b 3f 62 72 3a 40 14 34 8e be d9 a8 0f c0
       0.85919774 2.9132314 -0.27774107 -2.2446806
0001b0 96 0f ea 3c f5 11 9d 3e 89 e3 2c bf 4a 31 fb 3e
       0.028571885 0.30677763 -0.6753469 0.49061042
0001c0 e6 66 76 bd 0c 23 75 be 62 ce bd 3f f4 6f be 3e
       -0.060156725 -0.2393915 1.4828608 0.37194788
0001d0 fe 66 3d 3f 3f 15 83 bf 98 65 51 bf 21 6d d6 3f
       0.7398528 -1.0240859 -0.81795645 1.6752053
0001e0 97 e1 eb be 23 e2 96 bf 0e 60 9a bf d6 85 30 3f
       -0.4607055 -1.1787761 -1.2060564 0.6895422
0001f0 9b be e7 3f 69 39 25 c0 bf d8 ca bf 1e 9d d9 3f
       1.8105043 -2.581629 -1.5847396 1.7001073
000200 17 f1 a4 bf 95 b5 af 3f c6 57 18 be 4a 61 ab be
       -1.2886075 1.372729 -0.14877233 -0.33472663
000210 02 ea db 3f 6e ee 50 3f 29 61 f9 bf 36 68 a4 bf
       1.7180789 0.81613815 -1.9482776 -1.2844303
000220 ae a8 cc 3e b9 29 d8 bf c6 8c 0e 3f 16 cf 47 bf
       0.39972442 -1.6887733 0.55683553 -0.78050363
000230 00 e1 56 be e9 09 6f bf 27 26 8c bf b7 6e f6 be
       -0.20984268 -0.93374497 -1.0949143 -0.48131344
000240 d2 93 b3 3e 90 1a e4 3f 5b 71 47 bf 62 53 ce 3c
       0.35073715 1.7820606 -0.7790734 0.025186244
000250 f5 c1 91 3f 4c 4d e5 be 88 97 8e 3f e2 37 95 3e
       1.1387316 -0.44785535 1.1139994 0.29144198
000260 51 ba 05 c0 ff 41 92 be 5f 54 4f bd b7 02 ad be
       -2.0894969 -0.28565976 -0.050617572 -0.33791134
000270 ca e6 2c 3f 89 c6 be 3f 4d ca a8 3e 87 61 d0 3e
       0.67539656 1.4904338 0.32966843 0.40699407
000280 7f 44 00 3f ea 3b 69 3f e8 43 90 3e 4b c8 82 3e
       0.50104517 0.91107047 0.28176808 0.25543436
000290 e9 b3 02 bf dd 87 81 3f 94 8f 35 bf 09 a8 8b bf
       -0.5105577 1.0119587 -0.7092221 -1.0910655
0002a0 c3 6e a8 3f 3a 1a 32 3d 0f 46 91 3d 2f 25 7a bf
       1.3158802 0.043482043 0.07093441 -0.9771299
0002b0 03 4e 0b bf 3c ae b9 3f e3 be 8f be 98 17 ab 3f
       -0.5441591 1.4506297 -0.28075323 1.3366575
0002c0 a1 ed c8 3f 0f 6a c0 bf 2a 13 46 3f 47 ed 23 bf
       1.5697519 -1.5032367 0.7737299 -0.6403393
0002d0 bb 41 b4 3d bd 4c dc 3b d7 69 21 c0 2e c0 94 3e
       0.088015996 0.006723015 -2.522085 0.2905287
0002e0 a1 37 f2 3d 8a 3a 5c 3e fc b8 4c be 28 62 be 3e
       0.118270166 0.21506706 -0.19992441 0.37184262
0002f0 54 59 3c bf 17 f9 98 3f 86 e7 99 bf 0f e8 eb 3e
       -0.73573804 1.1951016 -1.202378 0.46075484
000300 96 66 a1 3f 5d 68 f9 3f 57 3e 6f 3e 2d e9 04 bf
       1.2609432 1.9484974 0.23363625 -0.519183
000310 be f4 64 3f 79 ac 44 3d 54 f6 c5 bf fc 57 c7 3e
       0.89435947 0.048016045 -1.5465798 0.38934314
000320 38 f6 a9 3f 8f ae 3b 40 25 3b 80 3f e0 de 6a be
       1.3278265 2.9325292 1.001805 -0.22936583
000330 09 4f 88 3f 26 b5 6b bf 86 b7 e0 bd 5b 3c 43 bf
       1.064912 -0.92073286 -0.10972504 -0.7626397
000340 17 6f e3 bf e1 29 80 bf 0c 45 ff 3e 04 dd af 3d
       -1.7768277 -1.001278 0.49857366 0.08587077
000350 db e7 f9 3e 35 f3 aa bf 15 af 9d 3f a6 ef 32 3f
       0.48809704 -1.3355471 1.2319056 0.69896924
000360 18 cf 81 bd e6 a2 1e be d9 23 13 3e 76 77 95 bf
       -0.06338328 -0.15491828 0.14369144 -1.1677082
000370 12 44 32 bf 55 2e ee 3e e7 7b ec bd 60 36 d1 3d
       -0.6963512 0.46519724 -0.1154707 0.10215449
000380 00 0f d7 be a9 64 27 be 61 49 a5 bd d8 c0 a1 3f
       -0.42003632 -0.16346993 -0.080706365 1.2636976
000390 30 b7 ac 3f 3f 66 8c 3f 2f ca e6 bf 9d a9 ed 3f
       1.3493404 1.0968703 -1.8030452 1.8567387
0003a0 1b d7 62 be 3f 59 42 be ed 37 cf be 76 bb 57 bf
       -0.22152369 -0.18979357 -0.40472355 -0.8427042
0003b0 58 41 73 bf cf 41 1f 3f c9 3a 93 3f aa 9a 1e bd
       -0.9502158 0.6220979 1.1502315 -0.038721718
0003c0 f7 f0 f2 bf d4 3e 26 c0 42 e4 ae 3e 7b 5d 98 bf
       -1.8979787 -2.5975847 0.34158522 -1.1903528
0003d0 45 d4 7e 3f 2e 1f a5 3f f6 df 60 3e 48 ac 9f bd
       0.9954265 1.290014 0.21960434 -0.07796532
0003e0 97 1f 28 40 47 05 b4 bf e9 49 13 be c9 3c df 3e
       2.626928 -1.406411 -0.14383663 0.43601063
0003f0 be 8e 00 be 71 c2 da be fa 9c 49 3f 55 c4 51 3f
       -0.12554452 -0.42726472 0.7875515 0.81940204

convs.3.bias f4 [16]
000000 56 1b 96 3d 29 7b de 3d 22 73 39 3d 32 3d 08 bd
       0.07329433 0.10863335 0.045275815 -0.033261485
000010 dc d6 99 bd 88 c1 a3 bd 9b c3 59 3d bb 87 fa bc
       -0.07511684 -0.079958975 0.05316506 -0.0305823
000020 2c 14 0a 3d c2 e2 68 3d d6 5a bd bc 28 0a 1f 3d
       0.033710644 0.056856878 -0.023114603 0.038828045
000030 da ff 8d 3b 45 4b aa bb 5d 33 cb 3d c3 3f 8d bd
       0.0043334784 -0.005196961 0.09921906 -0.06896927

convs.5.weight f4 [4, 4]
000000 5e b2 4c 3d 10 aa e2 3e 9e 43 1f 3f c0 6f 9a 3d
       0.04997479 0.44270372 0.6221255 0.07540846
000010 87 3c 56 3e 73 47 2d 3f 46 fb 99 3f ad 8c 94 3e
       0.20921527 0.6768715 1.2029808 0.29013577
000020 40 e8 f0 3f d9 6c 74 3f d0 02 80 3f 11 3f be 3d
       1.8820877 0.9547859 1.0000858 0.09289373
000030 27 36 26 3f e2 a0 5a 3f 1d e0 02 3f f8 eb c2 3f
       0.6492638 0.8540174 0.5112322 1.5228262

convs.5.bias f4 [4]
000000 ec 5e 56 3e fb 4e 32 3e 84 90 e5 be dd cb 23 bd
       0.20934647 0.17412941 -0.4483682 -0.03998934

convs.6.weight f4 [1, 16, 1, 1]
000000 ac d2 da 3e af 14 28 be 71 3a 3b 3f cb 81 5d be
       0.42738855 -0.1641414 0.7313605 -0.21631543
000010 94 8f 46 bc 2c 52 4c be 2b 3c 2c bd db 07 0f 3f
       -0.012119193 -0.19953221 -0.04204957 0.5587136
000020 0e ba b3 3f 1f bc 8f be f1 4c 8d 3f 7f 10 32 3e
       1.4041154 -0.28073213 1.1039106 0.17389105
000030 4d 93 30 bf dd 9a 93 bf f6 80 86 3e 23 7a 1d bd
       -0.68974763 -1.1531636 0.26270264 -0.038446557
